model_weights.pth (torch, 7372 bytes, 9 tensors)

fc1.weight f4 [21, 9]
0	0xbe563735	-0.20919497
1	0x3e0d6878	0.13809383
2	0x3e688f4b	0.22710912
3	0x3e34f401	0.17671205
4	0x3e318ad2	0.17338112
5	0x3e7dcb4a	0.2478458
6	0x3eac283c	0.33624446
7	0x3ea4fdda	0.32224923
8	0xbd71575b	-0.0589212
9	0xbe14fdfe	-0.14550015
10	0x3e09bab4	0.13450128
11	0xbe4f359e	-0.20235297
12	0x3ea6242b	0.3244947
13	0xbe646fc3	-0.22308259
14	0xbe412493	-0.18861608
15	0xbe4832c5	-0.19550617
16	0x3e69a68f	0.22817443
17	0xbcdfde9c	-0.027327828
18	0xbe2d760b	-0.16939561
19	0x3dd4ebd1	0.10396541
20	0xbe6d9eca	-0.23205104
21	0xbe91a83e	-0.2844867
22	0xbd8a7168	-0.06759912
23	0x3e85baca	0.2611907
24	0xbcb10554	-0.021608986
25	0xbe979a79	-0.2961004
26	0x3d322030	0.043487728
27	0x3ebc6446	0.36795253
28	0x3cc2b4d9	0.023767876
29	0xbe41aa11	-0.18912531
30	0x3e238ebd	0.15972419
31	0x3e1df8ef	0.15426992
32	0xbe364f45	-0.17803676
33	0xbd641e0f	-0.05569273
34	0xbd90dbd2	-0.070731774
35	0xbea6bbcc	-0.32565153
36	0xbdfcc49a	-0.12342186
37	0x3e3b4362	0.18287423
38	0x3ebbe5f0	0.36698866
39	0xbdb38d24	-0.08767155
40	0xbe8b53a9	-0.27212265
41	0x3e50abb5	0.20378001
42	0xbe36b2ba	-0.17841616
43	0x3e7ec13e	0.24878404
44	0x3e3075c9	0.17232431
45	0x3ea98ba4	0.3311435
46	0xbe90f361	-0.28310683
47	0xbe7dfcd2	-0.24803475
48	0x3e55ad7a	0.20866957
49	0x3e8f1d4d	0.27952042
50	0x3e7e7380	0.24848747
51	0x3e84e25d	0.2595395
52	0xbe61d2c6	-0.2205306
53	0xbe48f3e7	-0.19624291
54	0x3eaf575d	0.3424634
55	0x3d6b3f00	0.05743313
56	0xbe2c8b8f	-0.16850112
57	0x3e99cdb4	0.30039752
58	0xbd1b6e62	-0.037947066
59	0xbca6451d	-0.020296628
60	0x3dca525d	0.09878991
61	0x3e9133af	0.28359744
62	0x3da35d95	0.07976834
63	0xbd8eca91	-0.0697223
64	0x3da1e980	0.07905865
65	0xbe7e9c0f	-0.24864219
66	0xbe355bde	-0.17710826
67	0xbc2111b8	-0.009830885
68	0xbd8e1c59	-0.06939001
69	0xbe89c860	-0.26910686
70	0xbd470d67	-0.048596766
71	0xbdcc78f8	-0.099840105
72	0xbe78aafc	-0.24283975
73	0x3e9721fb	0.29518113
74	0x3e942433	0.28933868
75	0xbd9a6457	-0.075386696
76	0xbe512252	-0.20423248
77	0x3dc25d3b	0.094904386
78	0xbe015ee8	-0.1263386
79	0xbe1bbf1e	-0.15209624
80	0xbd93b5b4	-0.072123915
81	0x3e98ee1b	0.2986916
82	0x3d52b2ff	0.051440235
83	0x3e082bec	0.13298005
84	0x3d0c114a	0.034196176
85	0xbdf46726	-0.119337365
86	0x3e4fc0e1	0.20288421
87	0xbe2d6dcd	-0.16936417
88	0x3db62bda	0.08895083
89	0x3c2c88c8	0.010530658
90	0xbe774d97	-0.24150692
91	0xbe06bc61	-0.13157798
92	0xbe8bf4c3	-0.27335176
93	0x3e9628aa	0.293279
94	0xbe11f93d	-0.14255233
95	0xbd5fa0d7	-0.05459675
96	0xbeadbe11	-0.33934072
97	0xbe582886	-0.21109208
98	0xbd7a0c9c	-0.06104718
99	0x3d44318d	0.047898818
100	0xbd2ebdc7	-0.042661455
101	0x3e96c11e	0.29444212
102	0xbd76462a	-0.060125507
103	0x3e7a68c6	0.2445403
104	0xbe6c2636	-0.23061451
105	0x3c80d704	0.015727527
106	0x3e81abd5	0.2532641
107	0x3e3783c7	0.17921363
108	0xbe66c6db	-0.22536795
109	0x3c9a43e4	0.0188312
110	0x3eab6eea	0.33483058
111	0xbe261e2c	-0.16222447
112	0xbe9a8afa	-0.30184156
113	0x3eadeac5	0.33968177
114	0x3e35a640	0.177392
115	0x3e029ee8	0.1275593
116	0x3d99d81b	0.07511922
117	0x3db55778	0.08854574
118	0x3dc77aa7	0.09740191
119	0xbe10f944	-0.14157587
120	0x3e2d47a5	0.16921861
121	0xbe03fb93	-0.12888937
122	0xbdef8cda	-0.11696787
123	0xbe6a4f11	-0.22881724
124	0x3dc17948	0.09446961
125	0xbe0c3c29	-0.13694824
126	0x3dcd1a9f	0.10014843
127	0xbd2ff673	-0.04295964
128	0x3e92bd1a	0.28659898
129	0x3e2427f3	0.16030864
130	0x3dfe7115	0.124239124
131	0xbea98b0d	-0.331139
132	0x3e481ecc	0.19542998
133	0xbe9020d5	-0.2815005
134	0x3e74e48b	0.23915307
135	0x3e2d2e5d	0.16912217
136	0x3e9db337	0.30800793
137	0x3eaa206c	0.3322786
138	0x3e229f2b	0.1588103
139	0x3e3c11c4	0.18366152
140	0xbe2811f8	-0.16413105
141	0x3d91a310	0.0711118
142	0xbe0b7f44	-0.13622767
143	0x3ea370bd	0.3192195
144	0xbe802f7f	-0.25036237
145	0xbea8cbf4	-0.32968104
146	0xbd87c286	-0.06628899
147	0x3d6bbc55	0.057552654
148	0x3d3eff28	0.046630055
149	0x3c404ab0	0.011736557
150	0x3eab9ecd	0.33519593
151	0xbe889c24	-0.26681626
152	0xbea7fb22	-0.32808787
153	0xbcf9e3d4	-0.030504145
154	0xbda1d3cc	-0.07901725
155	0x3e6ea261	0.2330413
156	0xbeb85f93	-0.36010417
157	0x3e332d43	0.17497735
158	0x3ce1036f	0.027467458
159	0x3dbcd6f3	0.09220686
160	0x3e0ad728	0.13558638
161	0xbdcd9fac	-0.100402206
162	0xbea01af1	-0.31270555
163	0x3c8bba2f	0.017056553
164	0xbc37b11d	-0.011211661
165	0x3e1317c7	0.14364539
166	0xbde488e3	-0.111589216
167	0x3e028206	0.12744913
168	0xbd4ef7cc	-0.050529286
169	0x3e8a0dff	0.26963803
170	0xbe0b0448	-0.13575852
171	0xbe96372a	-0.29338962
172	0x3e693719	0.22774924
173	0x3ea461d1	0.32105878
174	0xbe98cd74	-0.29844248
175	0x3e817519	0.2528465
176	0x3ea24936	0.3169648
177	0xbdfa8ccb	-0.122338854
178	0x3e5c2a45	0.215005
179	0x3e0ffbae	0.14060852
180	0x3eb12d9e	0.34605116
181	0xbdb6fa89	-0.089345045
182	0xbea577d2	-0.32317978
183	0x3e0347af	0.12820314
184	0x3e955cf4	0.2917248
185	0x3dae67ff	0.085159294
186	0xbe12b26e	-0.14325878
187	0xbe231a5a	-0.15928021
188	0xbe54f392	-0.2079604

fc1.bias f4 [21]
0	0x3ce755a5	0.02823908
1	0xbe9974f0	-0.2997203
2	0x3e930edd	0.28722277
3	0xbe81a04b	-0.25317606
4	0x3e0a8afe	0.13529584
5	0x3e130164	0.14355999
6	0xbe8a3d9c	-0.2700013
7	0xbe888822	-0.2666636
8	0x3e80f345	0.251856
9	0xbe900f39	-0.28136614
10	0x3df3b938	0.11900562
11	0xbe2b99fe	-0.16757962
12	0xbd9d7d9c	-0.07689974
13	0xbd85dcf0	-0.06536281
14	0x3e03304a	0.1281139
15	0xbe29088d	-0.16507168
16	0x3e7c9b88	0.24668705
17	0x39f0b7cf	0.00045913315
18	0x3ccefd76	0.025267344
19	0x3e56ae83	0.20965008
20	0x3e94d0f9	0.29065683

fc2.weight f4 [17, 21]
0	0x3d88ce9f	0.06680035
1	0x3e5e6b9d	0.21720739
2	0xbe25b3d0	-0.16181874
3	0xbdfb6513	-0.12275138
4	0xbe69a269	-0.22815861
5	0x3e173263	0.14765315
6	0x3e00d22a	0.12580171
7	0x3d7e4d9b	0.06208573
8	0x3dcaa804	0.09895328
9	0xbdd25434	-0.10269967
10	0x3d53c50f	0.0517016
11	0xbdaa81ce	-0.083255395
12	0xbe68b4a7	-0.22725163
13	0xbe02d311	-0.12775828
14	0x3d0c8b37	0.034312453
15	0xbe1790d1	-0.14801337
16	0x3dc752d6	0.097325966
17	0xbda4e96a	-0.08052333
18	0x3d7f4fff	0.06233215
19	0x3c6b7248	0.0143705085
20	0x3e50b692	0.20382145
21	0xbbfde6b1	-0.007748448
22	0xbb3b720f	-0.002860192
23	0x3dbe0f64	0.09280279
24	0x3d951e8c	0.07281217
25	0xbe6cecd9	-0.23137225
26	0xbe222706	-0.15835199
27	0x3ce60dfa	0.028082836
28	0xbdff086d	-0.12452779
29	0x3d0a4f45	0.033767004
30	0xbdb6894f	-0.08912908
31	0x3cf17ffa	0.02947997
32	0x3e4e875d	0.20168824
33	0xbc330aa5	-0.010927831
34	0x3ca814e3	0.020517772
35	0x3d93cb43	0.072165035
36	0xbde39bfe	-0.111137375
37	0x3dc48a0e	0.09596644
38	0xbdd83e77	-0.10558789
39	0x3e4388b7	0.19095121
40	0xbdecc358	-0.11560696
41	0x3e012bb7	0.12614332
42	0x3df0d6de	0.11759733
43	0x3e5aab41	0.2135439
44	0xbcb3ae15	-0.021933595
45	0xbc9ddfad	-0.019271696
46	0x3c6353f9	0.013875001
47	0xbdc0a984	-0.094073325
48	0x3dd9258f	0.10602867
49	0xbe416503	-0.18886189
50	0x3e168217	0.14698063
51	0xbc8fda84	-0.017560251
52	0x3e222741	0.15835287
53	0xbe4479bd	-0.19187064
54	0x3dee88cd	0.116471864
55	0x3e11ea88	0.14249623
56	0xbddb67b9	-0.10713143
57	0x3ded05d4	0.11573377
58	0xbd9f6453	-0.07782807
59	0xbca6f6bc	-0.020381324
60	0xbe213856	-0.15744147
61	0xbd82ecc6	-0.06392817
62	0xbc1e3ca5	-0.0096580135
63	0xbd8e44aa	-0.069466904
64	0xbd8bc22e	-0.06824146
65	0xbd9d31f7	-0.07675546
66	0xbcd07dc0	-0.025450587
67	0xbdfb48c2	-0.12269737
68	0x3e56e679	0.20986356
69	0x3dfe29b9	0.12410302
70	0x3e1cedd9	0.15325107
71	0xbe621e8f	-0.2208197
72	0x3da24c5c	0.07924721
73	0x3bafb1e4	0.0053617824
74	0x3da67767	0.08128243
75	0xbe044398	-0.1291641
76	0xbe4a2a0f	-0.19742607
77	0x3df62fcf	0.120208375
78	0x3d1f93f5	0.038959462
79	0xbdbd875c	-0.092543334
80	0xbe2569cf	-0.16153644
81	0x3e52ead5	0.20597394
82	0xbdb5e875	-0.08882228
83	0xbe0fd4fa	-0.14046088
84	0x3e2c8f08	0.16851437
85	0xbde0bc22	-0.109733835
86	0xbbcae484	-0.006191792
87	0x3e674904	0.22586447
88	0xbddcfdef	-0.107906215
89	0x3e0bce69	0.13652958
90	0x3e68acba	0.2272214
91	0x3dc263ad	0.09491668
92	0xbcda34d7	-0.026636524
93	0x3defa8a4	0.117020875
94	0xbbd53714	-0.00650681
95	0x3d6ec3ac	0.058292076
96	0xbdff9865	-0.12480239
97	0x3e3008f5	0.17190917
98	0xbe39d5a9	-0.18147911
99	0x3dfd5533	0.12369766
100	0x3e4bbab6	0.19895443
101	0x3d05bfda	0.032653667
102	0xbe0a120b	-0.13483445
103	0x3e2b0c1f	0.16703843
104	0xbd95e8de	-0.073198065
105	0xbdc4c26e	-0.09607397
106	0x3d599d53	0.05312855
107	0x3b457327	0.003012845
108	0xbbe5ccb0	-0.007012926
109	0xbe32ccae	-0.17460892
110	0xbb9de38e	-0.0048183864
111	0x3de999fc	0.11406323
112	0x3e2fe09e	0.17175528
113	0x3c15eb51	0.009150342
114	0xbe1659da	-0.14682713
115	0x3e37a1db	0.17932837
116	0xbce3b5b2	-0.0277966
117	0xbe45f89d	-0.1933312
118	0xbd06c37b	-0.03290127
119	0x3e51989e	0.20468375
120	0xbe500424	-0.2031408
121	0x3e73ef59	0.23821773
122	0x3e3dab64	0.18522412
123	0x3d805596	0.06266324
124	0x3e0b5905	0.13608177
125	0x3d3c8a04	0.04603006
126	0xbd2074f8	-0.03917405
127	0x3d581091	0.052750174
128	0x3e5dd077	0.21661554
129	0xbd38ce99	-0.045118902
130	0x3e3ae43b	0.18251126
131	0xbdabd3d0	-0.083900094
132	0xbe029e03	-0.12755589
133	0x3e4f162c	0.20223302
134	0x3d01bbc9	0.031673227
135	0x3e245167	0.16046678
136	0x3d8c5ac1	0.068532474
137	0xbe41f069	-0.18939365
138	0xbdb66bb4	-0.089072615
139	0x3d8e8936	0.06959765
140	0xbe55b244	-0.20868784
141	0x3d880703	0.066419624
142	0x3e216abf	0.15763377
143	0x3e053308	0.13007748
144	0x3ddcb318	0.10776347
145	0x3e849d66	0.25901335
146	0xbd94ff39	-0.07275242
147	0x3e1efb12	0.15525463
148	0x3e60050b	0.21876924
149	0xbdf4f57b	-0.11960884
150	0x3e8830bc	0.2659968
151	0xbe56869d	-0.20949788
152	0xbdae1902	-0.085008636
153	0x3e4efad2	0.20212868
154	0xbd5adcf3	-0.05343337
155	0x3d322cce	0.04349976
156	0x3d91aef3	0.07113447
157	0xbe31f0a9	-0.17376961
158	0x3b1f063a	0.0024265186
159	0xbcdb4e97	-0.026770873
160	0xbdedd580	-0.116129875
161	0xbcd09a1e	-0.025464114
162	0x3e466c32	0.1937721
163	0x3e528c9d	0.20561452
164	0xbdc07ce2	-0.093988195
165	0xbd99f9b9	-0.07518334
166	0x3d158fd1	0.036514107
167	0x3dca3db4	0.0987505
168	0x3d3dd29c	0.04634343
169	0x3e02a1e9	0.12757076
170	0xbe2a1bea	-0.16612211
171	0x3da7761d	0.08176825
172	0x3c1da341	0.009621442
173	0xbd63600a	-0.05551151
174	0x3e295f4f	0.16540264
175	0x3cc21c97	0.023695273
176	0x3ac41642	0.0014960247
177	0xbe4ef1b2	-0.20209387
178	0xbc31ce93	-0.010852474
179	0xbc8f7699	-0.017512606
180	0xbe6843ce	-0.22682115
181	0xbe021fd2	-0.12707451
182	0x3d6190b2	0.055069633
183	0x3e021811	0.12704493
184	0xbce648fb	-0.028110972
185	0xbe6c7d39	-0.23094644
186	0xbe1dee5a	-0.15422955
187	0xbe8487e6	-0.25884932
188	0xbdba486c	-0.090958446
189	0xbd1a0ad5	-0.037607986
190	0xbe2755e9	-0.16341366
191	0x3e01a42d	0.12660284
192	0xbe462f87	-0.19354068
193	0x3e66d856	0.22543463
194	0xbe47c674	-0.19509298
195	0x3da1ec5f	0.07906412
196	0xbd3bbeca	-0.045836248
197	0x3d8af8d7	0.06785744
198	0xbdb5642f	-0.08856999
199	0x3e22f26f	0.15912794
200	0xbe056615	-0.13027222
201	0x3de02127	0.10943823
202	0xbe285ac3	-0.16440873
203	0x3df35fff	0.11883544
204	0xbd5adeae	-0.05343502
205	0x3aa56d4b	0.0012621073
206	0xbd9fd329	-0.078039475
207	0x3e4ef11e	0.20209166
208	0xbd4cd8b5	-0.050011355
209	0x3d89c424	0.06726864
210	0xbde09211	-0.1096536
211	0x3e0c01cd	0.13672562
212	0xbddf1e52	-0.10894455
213	0x3e468444	0.19386393
214	0xbc124c2a	-0.008929292
215	0xbd094b7c	-0.033519253
216	0x3dfae20e	0.12250148
217	0x3d4dd5cf	0.050252732
218	0x3e378b99	0.17924346
219	0x3e28bd44	0.16478449
220	0xbcb1638d	-0.021653915
221	0x3df2cac3	0.1185508
222	0xbd8e1c28	-0.06938964
223	0xbdad1ca8	-0.08452731
224	0x3e591418	0.21199071
225	0x3e3a9a7d	0.18222995
226	0x3d963d28	0.073358834
227	0xbc9a4a20	-0.018834174
228	0xbe5b873d	-0.21438308
229	0xbdba0c90	-0.09084427
230	0x3e25031f	0.16114472
231	0xbe399419	-0.18122901
232	0xbdbfca35	-0.0936474
233	0xbc02786b	-0.00796328
234	0xbdf25583	-0.11832716
235	0x3de49c17	0.11162584
236	0xbe656835	-0.22403033
237	0x3d0a1abf	0.033716913
238	0x3dbad6b7	0.09122985
239	0xbdbaec71	-0.09127129
240	0x3c3a1645	0.0113578485
241	0xbc49ac70	-0.012309179
242	0xbdc48f7e	-0.095976815
243	0x3e3ccefb	0.18438332
244	0xbe339c98	-0.17540205
245	0xbd54c4da	-0.051945545
246	0xbe4eda11	-0.20200373
247	0xbe587907	-0.21139918
248	0x3d5290e4	0.05140771
249	0x3c293374	0.010327209
250	0x3e2dd87d	0.16977115
251	0x3e05ca1e	0.13065383
252	0xbdc8f69b	-0.09812661
253	0x3cffd4a3	0.031229323
254	0xbdd0b570	-0.101908565
255	0x3d8748c6	0.06605677

fc2.bias f4 [17]
0	0x3db45ca6	0.08806734
1	0xbbcd93e3	-0.006273733
2	0xbd90ba7d	-0.0706682
3	0x3e3ff9a4	0.18747574
4	0xbe4a9c75	-0.19786246
5	0xbe1ba655	-0.1520017
6	0xbd1ac7bb	-0.037788134
7	0x3e08527c	0.13312715
8	0x3df7da34	0.12102166
9	0x3cc2bf3c	0.023772828
10	0x3b871501	0.004122377
11	0xbe13fad3	-0.1445115
12	0x3d78226e	0.06057971
13	0xbc2e8957	-0.010652862
14	0xbe410dc0	-0.18852901
15	0xbd232445	-0.03982951
16	0x3d8f10da	0.06985636

fc3.weight f4 [13, 17]
0	0x3a0265fc	0.00049743033
1	0x3e70bfc6	0.23510656
2	0x3e2a602c	0.16638249
3	0x3e8ef86c	0.27923906
4	0x3e7e225f	0.24817799
5	0x3d90932b	0.0705932
6	0xbe1621dd	-0.14661355
7	0x3e34aad8	0.17643297
8	0x3dfe2685	0.12409691
9	0xbe284291	-0.16431643
10	0xbdf30b33	-0.118673705
11	0xbd82c4ac	-0.063851684
12	0x3e88886b	0.2666658
13	0x3e8b623c	0.27223384
14	0xbde10937	-0.10988086
15	0x3e4661dd	0.1937327
16	0xbdc53cba	-0.09630723
17	0xbce7c666	-0.028292846
18	0xbdbc2ddf	-0.09188437
19	0xbdce51a1	-0.10074163
20	0x3acfbccd	0.0015849114
21	0xbe39a403	-0.18128972
22	0xbd153e44	-0.036436334
23	0x3e1d1a98	0.15342176
24	0x3c042e6a	0.008067707
25	0xbe2f25fa	-0.1710433
26	0xbd8e83d5	-0.06958739
27	0x3e401843	0.18759255
28	0xbcb64efe	-0.022254463
29	0xbd94f7b9	-0.07273812
30	0xbd7a1905	-0.061059017
31	0xbda4a046	-0.08038382
32	0x3e116105	0.14197166
33	0x3d83fe86	0.06445031
34	0xbd921e91	-0.07134736
35	0x3e1760a0	0.14782953
36	0x3cbd0f7d	0.023078674
37	0x3dc6884b	0.096939646
38	0xbcc6d86e	-0.024273124
39	0x3d86e07a	0.06585784
40	0x3d9e7803	0.07737734
41	0xbe50aaf4	-0.20377713
42	0xbc5bd83b	-0.013418253
43	0xbdd45530	-0.10367811
44	0xbe67ad0f	-0.2262461
45	0xbd89731b	-0.06711408
46	0xbd81fa2c	-0.063465446
47	0xbd32a3fc	-0.04361342
48	0xbdf1a078	-0.11798185
49	0x3ddabdd6	0.106807396
50	0xbe00d4e5	-0.12581213
51	0xbe51a875	-0.20474418
52	0xbd30691a	-0.043068983
53	0xbe45499a	-0.19266358
54	0xbd82957e	-0.063761696
55	0xbe26e2ee	-0.16297504
56	0x3e373e33	0.17894821
57	0x3c11f9af	0.008909627
58	0xbe7e85f0	-0.2485578
59	0xbd37fc99	-0.04491863
60	0x3d7e6184	0.062104717
61	0xbe55e9ee	-0.20890018
62	0x3e8773a9	0.2645543
63	0xbda79552	-0.081827775
64	0x3e3cbeb6	0.18432125
65	0x3c241ccc	0.010016631
66	0x3d8dbbf7	0.06920617
67	0x3e327c98	0.17430341
68	0xbe2d84b1	-0.16945149
69	0xbc9e3238	-0.019311056
70	0xbe686953	-0.22696428
71	0xbe2708bc	-0.16311926
72	0x3e7e1f68	0.24816668
73	0x3e7652b9	0.24054994
74	0xbe3147b8	-0.17312515
75	0x3d55e28f	0.052218016
76	0x3d23795f	0.03991067
77	0x3e38cc34	0.18046647
78	0x3e1181b9	0.14209642
79	0x3cb8f821	0.022579255
80	0x3d85c7db	0.0653226
81	0x3d12d5e6	0.03584852
82	0x3e2f16b4	0.17098504
83	0xbe485941	-0.19565298
84	0x3cb2ef1c	0.021842532
85	0x3e1581d1	0.14600302
86	0xbe58cbef	-0.21171544
87	0xbe392bc8	-0.18083107
88	0xbe7e9839	-0.24862756
89	0xbd1326ae	-0.03592556
90	0xbe531421	-0.20613147
91	0x3e0a9db8	0.13536727
92	0xbe423d28	-0.18968642
93	0xbe255136	-0.16144261
94	0x3e029e2d	0.12755652
95	0xbe7cf5c0	-0.24703121
96	0xbd6482a5	-0.055788655
97	0x3cb25463	0.021768754
98	0x3ba918f6	0.0051604463
99	0xbe2514ae	-0.1612117
100	0xbdf70775	-0.12061969
101	0x3e5721b1	0.21008946
102	0xbe0bd720	-0.13656282
103	0xbe0944a4	-0.1340509
104	0x3e4e0172	0.20117739
105	0xbd3b1194	-0.04567106
106	0x3b4378c2	0.0029826616
107	0x3e0dbcb0	0.1384151
108	0x3e2d8e93	0.16948919
109	0x3e64fbe9	0.22361721
110	0x3e5921c1	0.21204282
111	0xbbd42de3	-0.0064751967
112	0xbcb3bb34	-0.021939851
113	0xbdf2e4e4	-0.11860064
114	0x3df51304	0.119665176
115	0x3e2c02c3	0.16797929
116	0x3e01533d	0.12629409
117	0xbe1a9ad9	-0.15098132
118	0xbe58c8c6	-0.21170339
119	0xbc1fe90e	-0.009760154
120	0xbdbb02ec	-0.09131417
121	0xbe605b72	-0.21909884
122	0x3e111fcf	0.1417229
123	0xbdd78674	-0.10523692
124	0xbe6ab479	-0.22920407
125	0x3e20df10	0.15710092
126	0xbe772e63	-0.24138789
127	0x3e67eadc	0.22648185
128	0x3cb36571	0.021898957
129	0x3dfceda6	0.12350015
130	0xb9f5fa0e	-0.00046916347
131	0xbe1ef81b	-0.15524332
132	0x3e4fc78b	0.20290963
133	0x3e548950	0.20755506
134	0xbdb3f91f	-0.087877505
135	0x3d6dda9e	0.058069818
136	0x3e366308	0.17811215
137	0x3db6c203	0.089237235
138	0x3e1f6169	0.15564503
139	0xbe80b14b	-0.25135264
140	0xbdb5ddfa	-0.08880229
141	0x3e37b82b	0.17941348
142	0x3cc13bc8	0.023588076
143	0x376f8ac1	1.4277816e-05
144	0x3e4759c6	0.1946784
145	0x3e555bc5	0.20835789
146	0x3e2f1e3a	0.17101374
147	0xbd710577	-0.058843102
148	0xbbc0f882	-0.0058889994
149	0xbe35e599	-0.17763366
150	0x3e125cb6	0.14293179
151	0x3e1ef1d8	0.15521944
152	0x3e6a37e3	0.22872882
153	0xbe8a2c47	-0.26986906
154	0xbdfec0db	-0.12439128
155	0x3e63aad3	0.22233133
156	0x3c65a22c	0.014015716
157	0x3d062a1c	0.032755002
158	0xbd93e181	-0.07220746
159	0x3e4bf64a	0.1991817
160	0xbe4c0870	-0.19925094
161	0xbe409356	-0.18806204
162	0xbdb681c4	-0.089114696
163	0xbe7bfbdd	-0.24607797
164	0x3e18e830	0.14932323
165	0xbe005027	-0.12530576
166	0x3df25493	0.118325375
167	0x3decfe55	0.115719475
168	0xbe6ab268	-0.22919619
169	0x3d05cbf0	0.032665193
170	0xbdfb7094	-0.12277332
171	0xbe7e9d87	-0.2486478
172	0x3e358349	0.17725863
173	0x3e345b70	0.17613006
174	0x3dd09090	0.10183823
175	0xbde447d9	-0.11146516
176	0xbcb3e1eb	-0.021958312
177	0x3e4ada7f	0.19809912
178	0xbe325535	-0.17415316
179	0x3e5d9f6b	0.21642844
180	0x3e20c534	0.15700227
181	0x3db70137	0.089357786
182	0xbe4317e4	-0.19052082
183	0xbd7b6a32	-0.061380573
184	0xbe102bb1	-0.14079167
185	0xbe2c39dc	-0.16818947
186	0x3d8dd439	0.06925244
187	0x3e3e1835	0.18563922
188	0xbcd74da3	-0.026282137
189	0x3c4511dc	0.012028184
190	0x3e198669	0.1499268
191	0xbde54a44	-0.11195806
192	0x3df281df	0.11841177
193	0xbe42f1ab	-0.19037502
194	0x3df357c9	0.11881978
195	0x3e05c629	0.13063873
196	0x3ca58833	0.020206546
197	0x3e6a8af8	0.22904575
198	0x3e0588e6	0.13040504
199	0xbd36a784	-0.04459335
200	0x3e54d97e	0.20786092
201	0x3caad4cc	0.020853423
202	0xbe616c34	-0.22013932
203	0xbe3f0391	-0.18653704
204	0x3e6db7e9	0.23214687
205	0xbe0229e6	-0.12711295
206	0x3cf02d79	0.029318558
207	0xbe0967ca	-0.13418499
208	0x3d0bdf16	0.0341483
209	0xbda6697c	-0.08125588
210	0xbe8b189e	-0.2716722
211	0xbe2c68b0	-0.1683681
212	0x3d422ae3	0.04740418
213	0xbe7d3140	-0.24725819
214	0x3e116f6d	0.14202662
215	0xbe817347	-0.25283262
216	0x3ca9353a	0.020655263
217	0x3e1f8bf4	0.15580732
218	0xbe04632d	-0.12928458
219	0xbc60c133	-0.013717937
220	0xbe660eb8	-0.22466552

fc3.bias f4 [13]
0	0x3e62e557	0.22157799
1	0xbdecfb55	-0.11571375
2	0xbdc574b2	-0.096413985
3	0x3d150230	0.03637904
4	0x3a876c7e	0.0010332016
5	0x3e0782a1	0.13233425
6	0x3e7133ce	0.23554918
7	0x3de30260	0.11084437
8	0xbde64058	-0.11242741
9	0xbde05a48	-0.1095472
10	0x3e4f863f	0.20266055
11	0x3dff408a	0.12463482
12	0x3e422757	0.1896032

fc4.weight f4 [9, 13]
0	0xbe73a7ca	-0.23794475
1	0xbd879a76	-0.06621258
2	0xbde2d506	-0.11075787
3	0x3d0a261d	0.033727754
4	0xbe73739b	-0.23774569
5	0x3ceb82b0	0.02874884
6	0x3db78b8f	0.089621656
7	0x3dbb49c2	0.091449276
8	0x3e62b260	0.22138357
9	0x3dce22cc	0.10065231
10	0xbdc43d21	-0.09581972
11	0xbe8e1f99	-0.27758482
12	0x3e2eb951	0.1706288
13	0x3e7cb547	0.24678527
14	0xbe933d8b	-0.2875789
15	0xbe8a9179	-0.27064112
16	0x3cc70d2d	0.024298275
17	0xbd91eee0	-0.0712564
18	0xbe8bcfb7	-0.2730691
19	0xbe5c8e23	-0.21538596
20	0xbd6366af	-0.05551785
21	0xbdd5dff1	-0.10443104
22	0xbe1cac0e	-0.15300009
23	0xbe40a471	-0.1881273
24	0xbd91f928	-0.07127601
25	0x3e31e438	0.17372215
26	0x3d3a365c	0.045461997
27	0xbe4977c0	-0.19674587
28	0x3cd16842	0.02556241
29	0xbdb70fc0	-0.08938551
30	0x3ddc4987	0.10756212
31	0x3c055538	0.0081379935
32	0x3e56e00b	0.20983903
33	0x3e89fe52	0.26951844
34	0xbe8bf7b3	-0.27337417
35	0x3cb3340a	0.0218754
36	0x3e633ad8	0.22190416
37	0xbdba6d30	-0.09102857
38	0xbe174f8d	-0.1477644
39	0x3d729e08	0.05923274
40	0x3e0a8fec	0.13531464
41	0xbdaa5fe3	-0.0831907
42	0xbc61a1f5	-0.013771524
43	0x3d5b39a0	0.053521752
44	0x3e85c127	0.26123926
45	0xbdf1bf51	-0.11804069
46	0xbde07ddd	-0.109615065
47	0xbc87717b	-0.016533604
48	0x3e654495	0.22389443
49	0x3dc875fb	0.09788128
50	0xbe0cb96c	-0.13742608
51	0xbd236b63	-0.039897334
52	0xbde4b782	-0.11167814
53	0xbe7941ea	-0.2434155
54	0x3e28f32c	0.16499013
55	0x3e5cb2cf	0.21552585
56	0xbe1ba0ab	-0.15198009
57	0xbe3b03f3	-0.18263225
58	0x3e836b21	0.2566767
59	0xbb431eae	-0.0029772925
60	0xbe11b9a0	-0.14230967
61	0xbe63d442	-0.22248939
62	0xbdc3eb0d	-0.09566317
63	0xbc628733	-0.013826179
64	0x3e837e83	0.25682458
65	0x3d2a0987	0.041512992
66	0xbe809736	-0.25115365
67	0x3e16cf6b	0.14727561
68	0xbcf91af0	-0.030408353
69	0xbe210ad5	-0.15726788
70	0xbd8a50eb	-0.06753715
71	0xbe527678	-0.20553005
72	0xbe4bed5e	-0.19914767
73	0x3cfe40c8	0.03103675
74	0xbe85007b	-0.2597693
75	0x3c865c85	0.016401539
76	0x3e7cbe40	0.2468195
77	0x3e81d82d	0.25360242
78	0xbec0a94d	-0.37629166
79	0xbcdea313	-0.02717737
80	0x3daecb93	0.085349225
81	0x3ea89838	0.32928634
82	0xbe82c23a	-0.25538808
83	0x39913629	0.00027696908
84	0xbeaf298d	-0.34211388
85	0xbd17a6c8	-0.03702429
86	0xbe1e22ed	-0.1544301
87	0x3eb152d9	0.3463352
88	0x3ea08d84	0.31357968
89	0xbe99e979	-0.30060938
90	0xbe52a6e1	-0.20571472
91	0xbe9c783b	-0.3056048
92	0xbdb78244	-0.08960393
93	0x3e17ba78	0.14817226
94	0x3e726560	0.23671484
95	0x3e892e2f	0.26793048
96	0xbe437215	-0.19086488
97	0xbd433386	-0.04765656
98	0x3e7cf56e	0.24702999
99	0x3e5dacbe	0.21647927
100	0x3ce2573b	0.027629485
101	0xbcd9c679	-0.026583897
102	0xbc5552c5	-0.013020222
103	0xbe917728	-0.28411222
104	0x3e81be0c	0.25340307
105	0x3df8d141	0.12149287
106	0x3e485849	0.19564928
107	0x3e3fd7db	0.18734686
108	0x3e2b485f	0.16726826
109	0xbe65bf60	-0.22436285
110	0xbd948c6b	-0.07253345
111	0xbd35b650	-0.04436332
112	0xbe046201	-0.1292801
113	0x3d6f92d3	0.05848963
114	0x3e4e3be5	0.20140035
115	0x3e4cd89e	0.20004508
116	0xbe3e8a42	-0.18607429

fc4.bias f4 [9]
0	0x3d5ddbaa	0.054164566
1	0xbe1f341d	-0.15547223
2	0xbd839609	-0.06425101
3	0x3d946984	0.07246688
4	0xbd7b4cc1	-0.061352495
5	0xbd78d0cb	-0.060745995
6	0x3db6a002	0.08917238
7	0xbe2e4c79	-0.1702136
8	0x3e1f206f	0.15539716

fc5.weight f4 [1, 9]
0	0x3e3013c2	0.17195037
1	0xbeb344e9	-0.35013512
2	0x3ce0e401	0.02745247
3	0x3e6c9ffd	0.23107906
4	0xbe2848de	-0.16434047
5	0xbe074255	-0.13208897
6	0x3f2bdc09	0.6713262
7	0x3e979548	0.2960608
8	0xbde5fb4d	-0.112295724
