Style-Imitation-in-Grayscale-Images-A-Generalization-and-Localization-Approach-Image-Style-Imitation/Style-Imitation-in-Grayscale-Images-A-Generalization-and-Localization-Approach-main/emboss_model_weights.pth (torch, 7372 bytes, 9 tensors)

fc1.weight f4 [21, 9]
0	0x3e4ac902	0.19803241
1	0xbc901fb9	-0.017593252
2	0xbd83d37d	-0.064368226
3	0xbbf83a25	-0.0075752907
4	0x3d913951	0.0709101
5	0x3e2be101	0.16785051
6	0x3e40d1cd	0.18830033
7	0xbea3b0ef	-0.31970927
8	0x3e9218d9	0.28534582
9	0xbdd2745b	-0.10276099
10	0xbe6fbb97	-0.23411404
11	0xbebe306b	-0.37146315
12	0x3e9992a3	0.29994687
13	0x3e86723b	0.26259026
14	0xbe655d5d	-0.22398897
15	0xbdfa5720	-0.12223649
16	0xbe81b5a3	-0.2533389
17	0x3d67562f	0.056478675
18	0xbe6964b7	-0.22792326
19	0x3ea3df46	0.32006282
20	0xbdeb56c6	-0.1149116
21	0xbe69bbdd	-0.2282557
22	0x3e33f607	0.1757432
23	0xbdd5f5e2	-0.10447289
24	0xbe5dfceb	-0.21678512
25	0xbda776ad	-0.081769325
26	0x3d78e73d	0.0607674
27	0x3e57ccd8	0.21074235
28	0x3e2bd6a7	0.16781102
29	0x3e51403f	0.20434664
30	0x3e0e4253	0.13892488
31	0x3e776b2a	0.24161974
32	0x3dc4091f	0.09572052
33	0xbe2b99ec	-0.16757935
34	0xbe22c8fc	-0.15896982
35	0xbdaeefe8	-0.08541852
36	0x3e694194	0.22778922
37	0x3e8cee64	0.27525628
38	0xbe37f61d	-0.17964979
39	0x3e5eba3c	0.2175073
40	0xbdd12bf0	-0.102134585
41	0x3e819865	0.2531158
42	0xbdb3eca3	-0.08785369
43	0xbe37ebde	-0.1796107
44	0x3e0821b4	0.13294107
45	0x3d5d118b	0.05397181
46	0xbe469cd8	-0.19395769
47	0x3b2e2fea	0.0026578852
48	0x3e7a3dc5	0.24437626
49	0xbe1a1daa	-0.15050378
50	0xbe5419a9	-0.20712914
51	0x3e0d338b	0.13789193
52	0x3e2ae21a	0.16687813
53	0x3e8e3d78	0.27781272
54	0x3e6414c0	0.2227354
55	0xbdf0e048	-0.11761528
56	0xbbe1aef4	-0.006887311
57	0xbe91c2b1	-0.2846885
58	0x3d86dece	0.06585465
59	0x3e66dacd	0.22544403
60	0x3e5ec465	0.21754606
61	0xbe77b0c7	-0.24188529
62	0xbe1c2e35	-0.15252002
63	0xbeb0d07d	-0.34534064
64	0xbcd7c18f	-0.026337413
65	0xbdd0eb97	-0.10201185
66	0xbe41ca51	-0.18924834
67	0xbe2fcb6e	-0.17167446
68	0xbe013dfc	-0.12621301
69	0xbeaf0a5e	-0.34187597
70	0xbdaa3a9d	-0.08311961
71	0x3e8d2613	0.2756811
72	0x3e91a4c7	0.28446028
73	0x3e4c97ed	0.1997983
74	0x3dea1480	0.11429691
75	0x3ddaaaa8	0.10677081
76	0xbe87236d	-0.26394215
77	0xbe78cb15	-0.2429622
78	0x3ea7d725	0.3278133
79	0x3c0725c4	0.00824875
80	0xbe6471aa	-0.22308984
81	0x3e4b5584	0.1985684
82	0x3ea363a0	0.31911945
83	0x3e3fa382	0.18714717
84	0xbdd8d331	-0.105871566
85	0x3e587db9	0.2114171
86	0x3e59071e	0.21194121
87	0xbca470bc	-0.020073287
88	0x3e5f75a1	0.21822216
89	0xbc76f8c6	-0.015073961
90	0xbdb3f1d4	-0.087863594
91	0x3d122e2f	0.035688575
92	0xbd0e6010	-0.03475958
93	0xbe418602	-0.18898776
94	0x3e2f1576	0.1709803
95	0x3b4657e4	0.003026479
96	0x3cc57306	0.024102699
97	0xbe17d459	-0.14827098
98	0x3c6f8d1e	0.014621047
99	0xbe48fc5b	-0.19627516
100	0x3c0a6046	0.008445805
101	0x3e85aae0	0.2610693
102	0xbecaaddb	-0.39585766
103	0x3e924ede	0.28575796
104	0xbdce9486	-0.10086922
105	0xbe3eb671	-0.18624283
106	0x3e0033e1	0.1251979
107	0x3e62258f	0.2208464
108	0xbddab2ed	-0.10678659
109	0xbe2ea559	-0.17055263
110	0x3e2530ed	0.16131945
111	0xbe2463fc	-0.16053766
112	0xbe3b70f0	-0.18304801
113	0xbe7ce8a3	-0.24698119
114	0xbe58ab17	-0.21159016
115	0x3e785995	0.24252923
116	0x3dfdd4d4	0.12394109
117	0xbea3a766	-0.31963652
118	0xbe8f8d2d	-0.28037396
119	0xbe2bbb78	-0.16770732
120	0x3e421273	0.1895235
121	0x3df93728	0.12168723
122	0x3d85faf8	0.06542009
123	0x3d9c2226	0.07623701
124	0x3e6e9121	0.2329755
125	0xbea516a1	-0.32243827
126	0xbbdeb421	-0.0067963754
127	0xbd5ee385	-0.0544162
128	0x3d8672ae	0.06564842
129	0xbe35b20e	-0.17743704
130	0x3e127588	0.14302647
131	0xbe6a7f5e	-0.22900149
132	0xbd85bd40	-0.06530237
133	0x3ca38c52	0.01996437
134	0xbe53e729	-0.2069365
135	0x3e96b350	0.2943368
136	0xbe4c30b4	-0.19940454
137	0x3e84439e	0.25832838
138	0x3e0a0b83	0.13480954
139	0x3dbf3269	0.09335787
140	0x3dfe0a5a	0.12404318
141	0x3d5e75c7	0.05431154
142	0x3e9160dd	0.28394213
143	0x3df0ad65	0.117518224
144	0x3dc62b84	0.09676269
145	0x3e8f0a3b	0.27937493
146	0xbe9c9c5b	-0.3058804
147	0x3e62a7c4	0.2213431
148	0xbd27cbc4	-0.04096581
149	0xbd351f09	-0.04421905
150	0x3dcbda5d	0.09953759
151	0x3e5608c5	0.20901783
152	0xbe0e64e5	-0.13905676
153	0x3b62216c	0.0034504784
154	0xbe04f32a	-0.12983385
155	0xbe044188	-0.12915623
156	0x3e607f85	0.21923645
157	0x3c6cf82c	0.014463466
158	0x3dba4ace	0.09096299
159	0x3e9023d5	0.28152338
160	0x3e45e4ae	0.19325516
161	0x3c69a5f1	0.014260755
162	0xbd1c9824	-0.03823103
163	0x3e4d3013	0.2003787
164	0x3e38c78e	0.18044874
165	0x3dbff512	0.09372915
166	0x3e7caf59	0.24676265
167	0x3da07054	0.07833925
168	0xbe1710c2	-0.14752486
169	0x3d896710	0.06709111
170	0x3e57abcc	0.21061629
171	0x3dd2c810	0.10292065
172	0x3df3cdaf	0.119044654
173	0xbdcadccb	-0.09905394
174	0x3dbeb651	0.09312118
175	0x3e8d8669	0.2764161
176	0x3d8ce887	0.068802886
177	0xbe27f79e	-0.16403052
178	0xbdb68197	-0.08911436
179	0x3e5080a2	0.2036157
180	0xbecb9bd2	-0.3976732
181	0x3e19b480	0.15010262
182	0x3eb778e8	0.35834432
183	0x3de4709a	0.111542895
184	0xbe42768f	-0.18990539
185	0x3e6c2ddb	0.23064367
186	0x3db52a27	0.088459305
187	0x3d8fead0	0.07027209
188	0x3e660566	0.22462997

fc1.bias f4 [21]
0	0xbe6bc454	-0.23024112
1	0xbdba9738	-0.09110874
2	0x3d4b20f1	0.049591962
3	0xbbb755fa	-0.005594966
4	0xbcdd0dc3	-0.026984101
5	0x3e73c23e	0.23804566
6	0x3e6475fc	0.22310632
7	0xbe102dd6	-0.14079985
8	0xbe6c8777	-0.2309855
9	0x3e1f3b3f	0.15549944
10	0x3ddfc97a	0.109271005
11	0x3e3a040b	0.18165605
12	0xbdeb93d2	-0.11502804
13	0xbea6e7b0	-0.3259864
14	0xbd76466e	-0.06012576
15	0x3e7867d0	0.24258351
16	0x3dff3f70	0.124632716
17	0xbe7c82d9	-0.2465929
18	0xbdbf3847	-0.09336906
19	0xbca70f12	-0.020392928
20	0xbd473bd9	-0.04864106

fc2.weight f4 [17, 21]
0	0xbce1220e	-0.027482059
1	0x3e621309	0.22077574
2	0xbde4e4e1	-0.11176468
3	0x3e0baaa6	0.13639316
4	0xbe3e54cd	-0.18587036
5	0xbcf4688b	-0.029835006
6	0xbe1e6c0f	-0.15470909
7	0x3da3498a	0.07973011
8	0xbe0a7256	-0.13520178
9	0xbdbe5c4d	-0.09294949
10	0x3b6ed2fe	0.003644168
11	0x3e137d0d	0.14403172
12	0xbc7e61eb	-0.015526275
13	0x3dd6beec	0.10485634
14	0xbde77be2	-0.11302926
15	0x3da97676	0.08274548
16	0x3d8a0d94	0.06740871
17	0xbdd569d8	-0.10420579
18	0xbe093d05	-0.13402183
19	0xbddb603e	-0.10711716
20	0xbdd2c63b	-0.10291716
21	0x3e322443	0.17396645
22	0xbe0dfa49	-0.13865007
23	0xbe0a73a7	-0.1352068
24	0x3e64985c	0.22323745
25	0xbcdf7dda	-0.02728169
26	0xbdfab323	-0.12241199
27	0x3e4529c1	0.19254209
28	0x3e2ed66b	0.17073981
29	0xbe029d01	-0.12755205
30	0x3d77db9d	0.060512174
31	0x3e66715a	0.22504178
32	0xbd2fa7ec	-0.042884752
33	0x3daafd28	0.08349067
34	0xbe6734e6	-0.22578773
35	0x3e2db1db	0.16962378
36	0xbd92f2d5	-0.07175223
37	0x3dc6dda6	0.09710245
38	0x3c95b9d3	0.018277084
39	0x3dfcf6ef	0.12351786
40	0x3dadf516	0.08494012
41	0x3e90a92f	0.28254077
42	0xbd990b06	-0.07472806
43	0xbe81bd51	-0.2533975
44	0x3dda2b4e	0.10652791
45	0x3d7f2e6f	0.062300142
46	0xbdf4b6b6	-0.11948912
47	0xbded75b2	-0.11594714
48	0x3db04942	0.08607723
49	0x3e1397a3	0.14413314
50	0xbe9b4d7d	-0.30332556
51	0x3e000783	0.12502865
52	0xbe0adf8b	-0.13561837
53	0x3ea392f6	0.3194806
54	0x3dc254c7	0.09488826
55	0x3d0fe57e	0.03513097
56	0x3d8f019b	0.06982728
57	0x3e145295	0.14484628
58	0xbdbfbda3	-0.09362342
59	0x3e1da6a7	0.15395604
60	0xbe03cc90	-0.12871003
61	0x3e179354	0.14802295
62	0x3e92ca84	0.28670132
63	0x3e3929a8	0.18082297
64	0x3dfde600	0.12397385
65	0xbdfd1ab7	-0.12358611
66	0x3e3185c4	0.17336184
67	0x3ca48958	0.020085022
68	0xbde5a418	-0.11212939
69	0xbe34797b	-0.17624466
70	0xbe7c4971	-0.2463739
71	0x3dd2fa07	0.10301595
72	0xbe48e104	-0.19617087
73	0x3e0bfc51	0.1367047
74	0x3dcec6de	0.10096525
75	0xbd479f35	-0.048735816
76	0x3d35fb40	0.044429064
77	0xbd3669ea	-0.0445346
78	0x3b0f869b	0.00219003
79	0x3e9be39d	0.30447093
80	0x3e3658ba	0.17807284
81	0xbd860ca6	-0.06545381
82	0xbe29e068	-0.1658951
83	0xbe77e192	-0.24207142
84	0xbe114f45	-0.14190395
85	0xbcc792ca	-0.024361987
86	0x3e3cfba8	0.18455374
87	0x3dc09348	0.09403092
88	0x3e03f6a0	0.12887049
89	0x3df89476	0.12137692
90	0x3c7bfd6f	0.0153802475
91	0x3dddfa73	0.10838785
92	0x3c15e91f	0.009149819
93	0xbe0da3d0	-0.13832021
94	0xbc7085dd	-0.014680353
95	0x3e4d21ab	0.20032375
96	0x3dbefdf7	0.09325784
97	0xbe29f072	-0.16595629
98	0x3e0f2c03	0.13981633
99	0x3e309620	0.17244768
100	0x3df116cc	0.11771926
101	0xbe4b6f2b	-0.19866626
102	0x3e4544ea	0.1926457
103	0xbe065fb7	-0.1312245
104	0xbdc089ae	-0.0940126
105	0xbe40c3b7	-0.1882466
106	0xbd140b60	-0.03614366
107	0xbe4ac279	-0.19800748
108	0xbd7c7f32	-0.06164474
109	0x3e0f0349	0.13966097
110	0x3e225502	0.1585274
111	0x3d857d2a	0.06518014
112	0xbc6d2643	-0.014474454
113	0xbe3bf7c4	-0.18356234
114	0xbdc477b7	-0.09593146
115	0x3dfdb6bb	0.12388369
116	0x3e414a74	0.18876058
117	0xbca52d88	-0.020163313
118	0x3e5f90e1	0.2183261
119	0xbcfe2abb	-0.031026235
120	0x3e45c765	0.19314344
121	0xbe399ae8	-0.18125498
122	0x3e0fe169	0.14050831
123	0xbe4d5e73	-0.20055561
124	0x3df937cb	0.12168845
125	0xbe3e88d3	-0.18606882
126	0x3e5881f4	0.21143323
127	0xbe16db55	-0.14732106
128	0x3e36bbcd	0.17845078
129	0xbe1ade0d	-0.15123768
130	0x3d55b148	0.05217102
131	0x3dddc192	0.10827936
132	0x3e2c6f10	0.16839242
133	0x3ca0b40b	0.019617101
134	0xbdfa131d	-0.12210677
135	0xbdcd1e78	-0.10015577
136	0x3b40e901	0.0029435756
137	0x3e324ba4	0.17411667
138	0xbde14ac9	-0.11000592
139	0x3c8b0c2c	0.016973577
140	0xbe180080	-0.1484394
141	0xbdd2c0fe	-0.102907166
142	0xbe4b4a93	-0.19852667
143	0xbe6c1d3c	-0.23058027
144	0x3e677cd1	0.22606207
145	0x3d763ded	0.06011765
146	0xbdaeaa45	-0.0852857
147	0x3e361a85	0.17783554
148	0xbca71d7e	-0.020399805
149	0xbe2d5698	-0.16927564
150	0xbe377ae2	-0.1791797
151	0xbe4ad1d0	-0.198066
152	0x3def4fd4	0.11685148
153	0x3e2f950d	0.17146702
154	0xbdb6ddc0	-0.08929014
155	0x3e267236	0.16254506
156	0xbd61a465	-0.05508842
157	0xbe20d3ef	-0.15705846
158	0xbe1bd493	-0.1521781
159	0x3d486fa4	0.048934594
160	0x3d4f266c	0.05057375
161	0x3db339fb	0.08751293
162	0x3d8ded23	0.06929996
163	0x3dfa45a9	0.12220318
164	0x3e411d42	0.18858817
165	0x3df1783e	0.117905125
166	0x3d18f480	0.03734255
167	0x3e156395	0.14588769
168	0x3d4b2068	0.049591452
169	0xbe515f7c	-0.2044658
170	0xbd257012	-0.04039008
171	0xbe2a8cd0	-0.16655278
172	0x3d596b99	0.05308113
173	0xbe36ecd1	-0.17863776
174	0xbdae860d	-0.08521662
175	0xbb0f21d6	-0.0021840236
176	0x3e37e095	0.17956765
177	0xbe138b53	-0.14408617
178	0x3e479c15	0.19493134
179	0x3e23500a	0.15948501
180	0x3e4d8e90	0.20073915
181	0x3c499419	0.012303376
182	0x3cd3630c	0.025804065
183	0x3e2e520c	0.17023486
184	0x3dff2be1	0.12459541
185	0xbdaee5e6	-0.085399434
186	0x3d467b99	0.048457716
187	0xbe0df8cf	-0.13864444
188	0xbe475223	-0.19464926
189	0x3e39f70d	0.18160649
190	0xbe2a1ed3	-0.16613321
191	0xbd1cbb54	-0.038264588
192	0xbde2a5c4	-0.110667735
193	0xbd7d207f	-0.06179857
194	0x3d08f727	0.033438828
195	0x3ced09da	0.028935362
196	0x3e689fa8	0.22717154
197	0xbccda92f	-0.025105087
198	0x3e2fbae0	0.17161131
199	0x3e0dedc5	0.13860233
200	0x3e229812	0.15878323
201	0xbe32c04b	-0.17456166
202	0x3e4a222b	0.19739597
203	0x3e1df112	0.15423992
204	0x3e13d7ad	0.14437743
205	0x3aee88f3	0.0018198773
206	0xbe061dc9	-0.130973
207	0xbe1182d4	-0.14210063
208	0x3d74ac02	0.059734352
209	0x3e69dfe8	0.2283932
210	0xbe1585d0	-0.14601827
211	0x3e3bcfcf	0.18340991
212	0x3d81a101	0.06329537
213	0x3dae40f4	0.085084826
214	0xbc2b1db4	-0.0104440935
215	0x3c1c24f3	0.009530294
216	0xbc1cbc35	-0.009566356
217	0x3e078314	0.13233596
218	0x3e6d1fe7	0.23156701
219	0x3e3ae69f	0.18252037
220	0x3dd099d6	0.10185592
221	0xbe6e5aaa	-0.23276773
222	0xbe603d98	-0.21898496
223	0xbd9ff5d2	-0.078105584
224	0x3ccb549f	0.024820624
225	0xbcf65a81	-0.030072453
226	0x3d8f320d	0.06991968
227	0xbe06ddcc	-0.13170546
228	0x3dfbe034	0.12298623
229	0x3dad3a93	0.08458438
230	0xbe5e0f28	-0.21685469
231	0xbd956f18	-0.0729658
232	0xbdd94657	-0.106091194
233	0x3e09bdfe	0.13451383
234	0xbda031d5	-0.07822005
235	0xbcb5d1a2	-0.022194687
236	0xbd9b32e5	-0.07578067
237	0xbe2c3454	-0.16816837
238	0xbc403984	-0.011732463
239	0xbe087e1c	-0.13329357
240	0x3d96a807	0.073562674
241	0x3e2df1a8	0.16986716
242	0x3e6ea9b1	0.2330692
243	0xbe249a5a	-0.16074505
244	0xbe3dc8d1	-0.18533637
245	0x3df8d924	0.12150791
246	0xbd9ba6e1	-0.07600189
247	0x3c9eada9	0.019369917
248	0xbe2f23c9	-0.17103495
249	0xbd0dc47d	-0.034611214
250	0xbe59e448	-0.21278489
251	0xbe1b93e7	-0.15193139
252	0xbc890344	-0.01672519
253	0x3e530d66	0.2061058
254	0x3e1e32b8	0.15449035
255	0xbdb0fb43	-0.08641674

fc2.bias f4 [17]
0	0xbdf26de8	-0.11837369
1	0xbd9c7a7b	-0.07640549
2	0x3d542e18	0.05180177
3	0xbc7167c3	-0.014734211
4	0x3dcc14a4	0.099648744
5	0x3e3e62c3	0.18592362
6	0xbd4003c0	-0.046878576
7	0x3e17d436	0.14827046
8	0x3e5a7751	0.21334578
9	0xbe3bbc4a	-0.18333545
10	0xbd87cdde	-0.06631063
11	0x3e147ba6	0.14500293
12	0xbdf1cb23	-0.118063234
13	0x3d776d9b	0.060407262
14	0xbdb770e4	-0.08957079
15	0xbdc3cf30	-0.09561002
16	0x3e2aff8c	0.16699046

fc3.weight f4 [13, 17]
0	0x3e0e2f96	0.1388534
1	0xbe80d39c	-0.25161445
2	0xbe3ae7db	-0.18252508
3	0x3e75c8b9	0.24002351
4	0xbe806e43	-0.25084123
5	0x3e4e5c64	0.20152432
6	0x3e1c97dc	0.15292305
7	0x3e308058	0.1723646
8	0x3e3a047c	0.18165773
9	0xbdb5c42f	-0.0887531
10	0x3e75d107	0.24005519
11	0x3dfff036	0.124969885
12	0xbd610a6b	-0.054941576
13	0xbdfc4044	-0.12316945
14	0x3c9a730a	0.018853683
15	0xbe50d4e2	-0.20393708
16	0xbdf8160b	-0.12113579
17	0x3bfab555	0.007651011
18	0x3e48d444	0.19612223
19	0x3e97dee2	0.29662234
20	0xbd0d5036	-0.034500323
21	0x3e4625a9	0.19350304
22	0x3e153f9b	0.14575045
23	0x3d40ee00	0.047101974
24	0x3d42301b	0.04740916
25	0xbe6536d6	-0.223842
26	0x3abab345	0.00142441
27	0xbe44dc87	-0.1922475
28	0x3e752e6b	0.23943488
29	0x3e0dcb71	0.13847138
30	0xbe24bcdf	-0.16087674
31	0xbcaeb085	-0.021324405
32	0xbe6146fe	-0.21999738
33	0xbe19b4bc	-0.15010351
34	0xbdc213a1	-0.094764
35	0x3e58ef75	0.21185096
36	0xbc89b4d4	-0.016809858
37	0x3de939ec	0.11388001
38	0xbdadf447	-0.08493858
39	0xbd466a0e	-0.048440985
40	0x3e0420df	0.12903164
41	0xbe725e0f	-0.23668693
42	0xbe5d4604	-0.2160874
43	0xbdf837ea	-0.1212004
44	0x3e4d4e17	0.2004932
45	0xbd7755da	-0.06038461
46	0x3d93b0bb	0.07211443
47	0xbe28ce13	-0.16484861
48	0xbd5ae6e6	-0.05344286
49	0xbe322395	-0.17396386
50	0xbd9e9151	-0.07742561
51	0x3e00e098	0.12585676
52	0xbd09eebc	-0.03367494
53	0x3e48f406	0.19624338
54	0xbe26d355	-0.16291554
55	0x3c92483e	0.017856713
56	0x3e147f26	0.14501628
57	0xbd61cedf	-0.05512893
58	0xbd9331a1	-0.071872
59	0x3e59cd5a	0.21269742
60	0xbce69fe5	-0.028152416
61	0xbe7d12c5	-0.24714191
62	0x3e3dc8ce	0.18533632
63	0x3cc934c4	0.024561293
64	0x3e16d58a	0.14729896
65	0xbd84dc06	-0.06487279
66	0x3d881987	0.06645494
67	0xbe5e959f	-0.21736763
68	0x3cf73ff2	0.030181859
69	0xbda88afe	-0.08229636
70	0x3d6b433f	0.057437178
71	0x3e1c2aa5	0.15250643
72	0x3d995d20	0.07488465
73	0xbdb502eb	-0.08838447
74	0xbe4ea701	-0.20180894
75	0x3d8ff463	0.07029035
76	0xbe09aa6e	-0.1344392
77	0x3dc94982	0.09828474
78	0x3e2e8b96	0.17045435
79	0xbe7047f2	-0.23464945
80	0x3e2d37f3	0.16915874
81	0x3db595e9	0.08866484
82	0xbe71a58c	-0.23598307
83	0x3cb624ca	0.02223434
84	0x3cb934ac	0.022608124
85	0xbe2fed62	-0.17180398
86	0xbe1e3e33	-0.15453415
87	0xbd24fd12	-0.04028041
88	0xbd5f8124	-0.054566517
89	0x3d90ed95	0.07076565
90	0xbdbb60a5	-0.09149293
91	0xbe5990f6	-0.21246704
92	0xbc81dbe5	-0.015851924
93	0x3dcae2c9	0.09906537
94	0xbe7c56f6	-0.24642548
95	0xbe48497d	-0.19559284
96	0x3e0fb5ca	0.14034191
97	0xbd86c7f0	-0.06581104
98	0xbd928837	-0.07154887
99	0xbd351b8d	-0.044215728
100	0xbd6c8c8e	-0.05775123
101	0xbcde428e	-0.027131345
102	0x3db128cf	0.08650362
103	0xbe330c43	-0.17485146
104	0xbe49a8e0	-0.19693327
105	0xbd2ed735	-0.042685706
106	0xbdce775d	-0.100813605
107	0x3cf29b12	0.029614959
108	0xbd6b6033	-0.05746479
109	0xbe2abe4e	-0.16674158
110	0x3e4ee8c2	0.20205978
111	0x3e5bf032	0.21478346
112	0xbe337836	-0.17526326
113	0x3ca44817	0.020053906
114	0x3e2564fa	0.16151801
115	0x3a4384be	0.000745844
116	0x3d3b50d1	0.04573137
117	0xbe17e1e1	-0.1483226
118	0x3ddd80b1	0.108155616
119	0x3e2d465f	0.16921376
120	0xbe032e8c	-0.12810725
121	0xbe49280d	-0.19644184
122	0x3e1d6700	0.15371323
123	0x3e09d2bc	0.13459295
124	0x3e164908	0.14676297
125	0xbe715b5f	-0.23570012
126	0xbe3da466	-0.18519744
127	0x3daff902	0.08592416
128	0xbd839040	-0.06423998
129	0xbdb286f2	-0.08717145
130	0xbe5120be	-0.20422646
131	0x3ce08b67	0.027410222
132	0xbe3654b2	-0.17805746
133	0x3e3ee7df	0.1864314
134	0xbe4d375f	-0.20040654
135	0x3d9bb945	0.07603697
136	0x3e80cd0a	0.25156432
137	0x3d54c1be	0.05194258
138	0x3ea554ea	0.32291347
139	0xbe3ae187	-0.18250094
140	0xbc9ff112	-0.019524131
141	0xbce90f0f	-0.028449563
142	0x3e845ee0	0.25853634
143	0x3e110d97	0.1416534
144	0x3e6c932b	0.23103015
145	0x3df0dd91	0.117610104
146	0xbe011216	-0.12604555
147	0xbe1a07b9	-0.15042008
148	0x3e1dd75e	0.15414187
149	0xbe2d8362	-0.1694465
150	0xbe521293	-0.20514898
151	0xbe505707	-0.20345698
152	0xbc9e7e74	-0.019347407
153	0xbd4f9313	-0.05067737
154	0x3e56c9fb	0.20975487
155	0x3e96a3fe	0.2942199
156	0xbe6c7d11	-0.23094584
157	0x3db92cd2	0.09041752
158	0xbd848937	-0.06471484
159	0x3e7e85b2	0.24855688
160	0xbe1f0495	-0.15529092
161	0x3e0fc52e	0.14040062
162	0x3e6e9e55	0.23302586
163	0xbe05754a	-0.13033023
164	0x3d5d4469	0.05402032
165	0xbe4d9fb3	-0.20080452
166	0x3d11b45f	0.035572406
167	0x3e18a8c0	0.14908123
168	0x3e66eb24	0.22550637
169	0x3dda7b8a	0.106680945
170	0xbdcc4969	-0.099749394
171	0x3d8417e4	0.06449869
172	0xbe17c1dd	-0.14820047
173	0xbd7774d0	-0.060414135
174	0x3e4b3263	0.1984344
175	0x3e725de2	0.23668626
176	0xbe5ae4c2	-0.21376327
177	0xbcf94e5e	-0.030432876
178	0xbdcf8cbc	-0.10134265
179	0xbc45dc2b	-0.012076418
180	0xbd32bce1	-0.04363716
181	0x3e4eadea	0.2018353
182	0x3e0d7b7f	0.13816641
183	0x3da2e4b6	0.079537794
184	0xbd36b719	-0.04460821
185	0x3e6cdaac	0.23130292
186	0xbe6207a8	-0.22073233
187	0xbcb49182	-0.02204204
188	0x3e6456b1	0.22298695
189	0x3de45c25	0.11150388
190	0xbe5955d0	-0.21224141
191	0xbe34ef3b	-0.17669384
192	0xbd31559b	-0.04329453
193	0x3dfe6cf8	0.12423128
194	0x3d831751	0.064009316
195	0x3e1bd2ca	0.15217128
196	0x3e6fb9fe	0.23410794
197	0xbe1d0ead	-0.1533763
198	0x3e38f99a	0.18063965
199	0xbd918aef	-0.071065776
200	0x3dbe8f85	0.09304718
201	0x3e140c52	0.14457825
202	0xbe10d824	-0.14144951
203	0xbe3862b4	-0.18006402
204	0xbe28054a	-0.16408268
205	0xbc2b392a	-0.010450641
206	0x3e28d079	0.16485776
207	0xbe33db3d	-0.17564102
208	0xbdc39623	-0.09550121
209	0xbc1e611c	-0.009666707
210	0x3e8d3b47	0.27584288
211	0xbe75516c	-0.23956841
212	0xbe19cd6f	-0.15019773
213	0xbc96f0d9	-0.018425392
214	0xbe7ead61	-0.24870826
215	0x3e5d2149	0.21594729
216	0xbe10f1ba	-0.14154711
217	0xbd3131a0	-0.043260217
218	0x3d733e38	0.05938551
219	0x3e34155b	0.17586271
220	0xbe7aedf5	-0.24504836

fc3.bias f4 [13]
0	0xbdea5df4	-0.114437014
1	0x3c5d7ac1	0.013518036
2	0x3da003b6	0.07813208
3	0x3e597ca5	0.21238954
4	0xbc08434b	-0.008316825
5	0xbd5be868	-0.053688437
6	0xbe40c39f	-0.18824624
7	0xbdb3de31	-0.08782614
8	0xbcfbb76d	-0.030727113
9	0x3e1b0fc6	0.15142736
10	0xbc7afe33	-0.015319395
11	0xbda7a0c2	-0.08184959
12	0xbe4b0e76	-0.19829735

fc4.weight f4 [9, 13]
0	0x3e616396	0.22010645
1	0xbde4eb02	-0.11177637
2	0xbe80c049	-0.25146702
3	0x3cf3ae59	0.029746221
4	0xbd1a6926	-0.037697934
5	0xbe88068f	-0.26567504
6	0x3df3ea4b	0.11909922
7	0x3e909e57	0.28245804
8	0x3b84a478	0.0040479265
9	0xbebdda5f	-0.37080666
10	0xbe87c143	-0.26514634
11	0xbe0e8d4a	-0.13921085
12	0xbde2c283	-0.110722564
13	0x3e9b1105	0.30286422
14	0xbe16ae1d	-0.14714856
15	0x3d95f77a	0.07322593
16	0xbe9b647d	-0.30350104
17	0xbe01cd94	-0.12676078
18	0x3e82f655	0.2557856
19	0xbe832441	-0.25613597
20	0x3dc08125	0.09399632
21	0xbe80db4b	-0.25167307
22	0xbdcca50e	-0.09992419
23	0x3e687889	0.2270223
24	0xbe58b668	-0.21163332
25	0xbe59cfb5	-0.2127064
26	0x3e37b494	0.17939979
27	0x3e3af474	0.18257314
28	0x3e881ac0	0.2658291
29	0x3e0023fa	0.12513724
30	0x3df84719	0.12122936
31	0xbe7fb7d4	-0.24972469
32	0xbe6651da	-0.22492161
33	0xbe431b70	-0.19053435
34	0x3d08e475	0.033421
35	0xbe2eedb3	-0.17082863
36	0xbe641671	-0.22274186
37	0x3e226b83	0.15861325
38	0x3dfe2ece	0.12411271
39	0xbe11cb3a	-0.14237681
40	0x3e83ae15	0.25718752
41	0x3e1333b3	0.1437519
42	0xbd25f46e	-0.04051631
43	0xbc7aa0e9	-0.015297153
44	0xbe862904	-0.26203167
45	0xbda7c4ae	-0.081918105
46	0x3e634015	0.22192414
47	0x3e92d115	0.28675142
48	0x3e7d4f85	0.24737366
49	0x3e33c060	0.17553854
50	0x3e25ca6d	0.161905
51	0x3e9aa56d	0.30204335
52	0x3dbfff81	0.093749054
53	0x3d084aec	0.033274576
54	0x3e157964	0.14597088
55	0xbe7bc464	-0.24586636
56	0xbd7151df	-0.05891597
57	0x39b5c3b1	0.00034668812
58	0xbe7eacfd	-0.24870677
59	0xbd359ab2	-0.044336982
60	0x3d0b1db9	0.033963893
61	0xbe7068f1	-0.23477532
62	0xbe1d72ff	-0.15375899
63	0x3dfb40f6	0.1226825
64	0xbdaa095d	-0.08302567
65	0xbe171889	-0.14755453
66	0xbb1e0179	-0.0024109764
67	0x3dde37e2	0.108505026
68	0xbc555e58	-0.013022982
69	0x3e166012	0.14685085
70	0x3e2b1ce8	0.16710246
71	0xbe01ce15	-0.1267627
72	0x3e534d7f	0.20635031
73	0x3e8485f9	0.25883463
74	0xbc8ff6a3	-0.01757366
75	0xbe11f322	-0.14252904
76	0xbe4825f0	-0.19545722
77	0xbe05a74e	-0.13052103
78	0xbe0ec82f	-0.13943551
79	0xbd47b8e8	-0.048760325
80	0x3d9d8199	0.076907344
81	0xbd68ae0c	-0.05680661
82	0x3e810e13	0.2520605
83	0xbe3b2552	-0.18275955
84	0x3e210636	0.15725026
85	0x3e6dcc85	0.2322255
86	0xbe727042	-0.23675635
87	0xbe83544a	-0.25650245
88	0x3dcca2c2	0.09991981
89	0xbdb5a24d	-0.08868847
90	0xbe9036cd	-0.2816681
91	0xbd20f9c0	-0.03930068
92	0xbd8c1959	-0.06840772
93	0xbddf0a28	-0.10890609
94	0xbd70cc8f	-0.058788832
95	0xbe8792ae	-0.26479095
96	0xbdf18248	-0.11792427
97	0xbddd75a3	-0.10813453
98	0x3de26aff	0.11055564
99	0x3e565e64	0.20934445
100	0xbd040d63	-0.03223933
101	0x3daccf9c	0.08438036
102	0xbe38cced	-0.18046923
103	0x3dcd90d9	0.10037393
104	0xbe0bcf9e	-0.13653418
105	0xbe5acedc	-0.21367973
106	0xbd5e8557	-0.05432638
107	0xbd8227f6	-0.06355278
108	0x3de420a3	0.111390375
109	0x3c0855e8	0.008321263
110	0xbd2ed5de	-0.04268443
111	0x3df8e554	0.12153116
112	0xbd2c410a	-0.042054214
113	0xbe6a5071	-0.22882248
114	0x3e12bf04	0.14330679
115	0xbe675ea0	-0.2259469
116	0xbe4e3697	-0.20138012

fc4.bias f4 [9]
0	0x3e14f287	0.14545642
1	0x3e77b144	0.24188715
2	0xbc94ab81	-0.018148186
3	0xbdcfce6b	-0.10146793
4	0xbde98721	-0.11402727
5	0xbe0e3e4d	-0.13890953
6	0x3e869735	0.26287237
7	0x3dfc6512	0.12323965
8	0x3ab9bfa3	0.0014171492

fc5.weight f4 [1, 9]
0	0xbef771ad	-0.48328915
1	0xbeebcffe	-0.46057123
2	0x3db32f9d	0.08749316
3	0x3ef247c5	0.4732038
4	0xbe01229d	-0.1261086
5	0xbd675582	-0.05647803
6	0xbe980d73	-0.2969776
7	0x3e577a60	0.21042776
8	0xbeb5d5d8	-0.35514712
