Style-Imitation-in-Grayscale-Images-A-Generalization-and-Localization-Approach-Image-Style-Imitation/Style-Imitation-in-Grayscale-Images-A-Generalization-and-Localization-Approach-main/pixelate_model_weights.pth (torch, 110218 bytes, 9 tensors)

model.0.weight f4 [128, 121]
0.015470653 -0.094308026 0.003795391 -0.16384493 -0.09178681 0.04299971 0.003637034 0.049363967
-0.081072666 0.0806511 0.07133467 -0.035327554 -0.077317834 0.011753258 -0.102834605 0.016467681
-0.09102634 0.06773259 0.061124485 -0.040082175 0.04996166 -0.022987505 -0.09617923 -0.0029735598
-0.108458355 -0.0579584 -0.15227343 -0.06772179 -0.11219283 -0.074504904 0.000750782 -0.086151786
0.065768376 -0.07270648 -0.0629294 -0.071477644 0.028655963 -0.14137326 -0.061463274 0.07377428
-0.073930144 0.058311548 0.0011715196 0.10457202 -0.07387566 -0.008115309 -0.10906778 -0.034039713
-0.09328531 -0.0048152828 -0.03880915 0.051175464 -0.0368399 0.043374725 -0.031841025 0.050212372
0.010646352 0.015033335 -0.024879664 -0.06737629 0.011024226 -0.041319832 0.021358173 -0.034798697
0.080334045 0.040678166 -0.037021376 0.008106013 0.06649543 -0.063636646 -0.057524126 -0.055090554
0.074767716 0.061942432 -0.011389514 -0.03203252 -0.028389899 0.049923535 0.046096914 0.020182192
0.03585564 -0.024235666 -0.009202436 0.004673517 0.00715728 -0.012895355 -0.060882997 -0.017547075
-0.044183493 -0.010609945 0.009921719 0.05718584 -0.05696381 0.02699423 0.048621893 0.064998895
-0.05332423 0.08939011 -0.056815796 0.08428879 0.02295956 0.10235743 0.07300746 0.06950774
0.090101324 0.09576989 -0.036927026 -0.017499529 0.003403932 0.110630095 0.083310045 0.056644004
0.10127822 0.03223325 -0.068474956 -0.017401233 0.062587805 -0.010442882 -0.0800819 0.009081165
-0.0717849 -0.21229608 -0.08517729 0.06129823 0.0023020722 -0.010656461 -0.056055702 -0.042661097
-0.0008103097 -0.018918503 0.004514809 0.009387787 -0.12513994 -0.0866819 -0.03193749 -0.0030580387
-0.029220251 0.048790872 -0.046770055 -0.046571143 -0.072119206 -0.0972583 0.0048686764 -0.1253774
-0.07446843 0.08159044 0.034822896 -0.014615944 -0.08289985 0.060004488 -0.038394865 -0.08609961
-0.012520181 -0.072250195 -0.025637807 -0.06646869 -0.013957047 0.005623464 -0.008508527 -0.06271778
-0.048788585 0.06566112 -0.068287045 0.05702213 -0.07043451 -0.027381329 -0.071232215 -0.044226833
0.06672898 0.036275093 -0.11376176 -0.036696605 -0.10782298 -0.032910656 -0.0017042311 0.066845454
0.065443516 -0.0005154121 -0.012300007 -0.08911376 0.029279942 -0.1013296 0.05573972 -0.060796548
-0.05441275 0.02519538 -0.077550344 0.06104142 -0.040093258 -0.034625143 0.022851776 -0.04137871
-0.008972591 -0.0902891 -0.11166043 -0.021218942 0.04053213 -0.01686427 0.0772933 0.04246651
-0.077511765 0.042161565 0.04828423 -0.09545135 0.026460817 -0.07459005 -0.030885838 0.049765654
0.021307698 0.124277376 0.116779014 0.08310269 -0.032478955 0.032829173 -0.05279801 -0.040283896
0.0024487267 0.031686537 0.017806793 0.03735464 -0.0111249415 0.003994171 0.018832095 -0.05481241
-0.015697272 -0.043295123 0.060010646 0.05584012 0.067619815 0.055577576 -0.077265255 -0.025741281
-0.046694178 -0.06368767 0.0339559 0.081601605 0.061220363 -0.07185575 -0.04232568 -0.07922104
-0.06471443 -0.0573794 0.20683011 0.05067533 0.11353271 0.12955126 0.08207701 0.025793632
0.06564444 0.046899367 -0.05508192 0.0028855863 -0.087139845 0.1169631 0.052899554 0.11243857
00000000: 9f78 7d3c 9124 c1bd 18bc 783b f7c6 27be
00000010: b9fa bbbd 7720 303d 4e5b 6e3b df31 4a3d
00000020: 6d09 a6bd 672c a53d e917 923d a0b3 10bd
00000030: d058 9ebd bd90 403c f39a d2bd 3be7 863c
00000040: 056c babd 62b7 8a3d ab5d 7a3d 352d 24bd
00000050: 99a4 4c3d 4b50 bcbc 9ef9 c4bd 0ee0 42bb
00000060: 6a1f debd ca65 6dbd 91ed 1bbe b9b1 8abd
00000070: 5bc5 e5bd 0796 98bd 21d0 443a 5970 b0bd
00000080: 92b1 863d 23e7 94bd 21e1 80bd df62 92bd
00000090: e9bf ea3c 27c4 10be eac0 7bbd f816 973d
000000a0: b068 97bd 17d8 6e3d ad8d 993a db29 d63d
000000b0: 1f4c 97bd 13f6 04bc ee5e dfbd 3a6d 0bbd
000000c0: 5e0c bfbd 85c9 9dbb 58f6 1ebd 5d9d 513d
000000d0: 6fe5 16bd b2a9 313d bc6b 02bd 7dab 4d3d
000000e0: 096e 2e3c 614e 763c 70d0 cbbc 95fc 89bd
000000f0: f59e 343c fc3e 29bd 56f7 ae3c 1489 0ebd
00000100: 2d86 a43d 269e 263d baa3 17bd 15cf 043c
00000110: c22e 883d ee53 82bd 6b9e 6bbd a2a6 61bd
00000120: d11f 993d 59b7 7d3d 169b 3abc 8834 03bd
00000130: ef91 e8bc 9f7c 4c3d 1ed0 3c3d 2055 a53c
00000140: 5ddd 123d e089 c6bc d0c5 16bc 4d24 993b
00000150: 9e87 ea3b 0a47 53bc 7360 79bd e2be 8fbc
00000160: c0f9 34bd 56d5 2dbc b58e 223c b33b 6a3d
00000170: e252 69bd 0123 dd3c c027 473d 241e 853d
00000180: 826a 5abd 2912 b73d aeb7 68bd 9a9f ac3d
00000190: b015 bc3c c6a0 d13d ef84 953d 135a 8e3d
000001a0: 0b87 b83d 0123 c43d cb40 17bd 2c5b 8fbc
000001b0: 8114 5f3b 0892 e23d 759e aa3d 8b03 683d
000001c0: f56a cf3d 0307 043d 993c 8cbd 088d 8ebc
000001d0: 092e 803d 9f18 2bbc fb01 a4bd 2bc9 143c
000001e0: f603 93bd 2564 59be 6e71 aebd da13 7b3d
000001f0: 5dde 163b 7098 2ebc aa9a 65bd 67bd 2ebd
00000200: f76a 54ba fafa 9abc f7f0 933b 3ccf 193c
00000210: af24 00be 4886 b1bd e3d0 02bd 6069 48bb
00000220: 4f5f efbc f0d8 473d f591 3fbd 62c1 3ebd
00000230: 3cb3 93bd 5c2f c7bd 6b89 9f3b ef62 00be
00000240: e782 98bd e318 a73d 74a2 0e3d b677 6fbc
00000250: 66c7 a9bd 44c7 753d ef43 1dbd fe54 b0bd
00000260: 7221 4dbc e9f7 93bd 6106 d2bc bd20 88bd
00000270: 19ac 64bc 0945 b83b 5967 0bbc 2e72 80bd
00000280: 8ad6 47bd 5679 863d 14da 8bbd 0990 693d
00000290: f83f 90bd cf4e e0bc 32e2 91bd 3227 35bd
000002a0: 34a9 883d 3195 143d edfb e8bd 2e4f 16bd
000002b0: 4bd2 dcbd 53cd 06bd 8260 dfba 45e6 883d
000002c0: 4007 863d b81c 07ba f885 49bc 4681 b6bd
000002d0: 7ddc ef3c e585 cfbd 554f 643d cd05 79bd
000002e0: e7df 5ebd 8b66 ce3c b7d2 9ebd 9106 7a3d
000002f0: d438 24bd 18d3 0dbd a633 bb3c b97c 29bd
00000300: c601 13bc 7ee9 b8bd 39ae e4bd 59d3 adbc
00000310: 0505 263d f026 8abc f34b 9e3d 5df1 2d3d
00000320: 7dbe 9ebd 9bb1 2c3d afc5 453d ff7b c3bd
00000330: 5bc4 d83c abc2 98bd 4c04 fdbc 12d7 4b3d
00000340: 7b8d ae3c 2385 fe3d d629 ef3d be31 aa3d
00000350: a708 05bd e277 063d ba42 58bd ba00 25bd
00000360: d17a 203b bec9 013d 8ddf 913c 2e01 193d
00000370: 6345 36bc 89e1 823b c445 9a3c fa82 60bd
00000380: 9197 80bc 3a56 31bd b9cd 753d 9cb8 643d
00000390: 427c 8a3d 50a5 633d 3f3d 9ebd 61df d2bc
000003a0: 6542 3fbd ae6e 82bd 5815 0b3d be1e a73d
000003b0: 34c2 7a3d 1c29 93bd b15d 2dbd a43e a2bd
000003c0: 0089 84bd a906 6bbd 46cb 533e ef90 4f3d
000003d0: d683 e83d 16a9 043e fe17 a83d 2b4d d33c
000003e0: 9870 863d 8d19 403d 949d 61bd 1b1c 3d3b
000003f0: 6076 b2bd 5a8a ef3d 34ad 583d 3146 e63d

model.0.bias f4 [128]
-0.2237443 -0.064921945 0.09048514 -0.016838783 -0.026617048 0.08708136 -0.018896405 -0.06756561
-0.29251614 -0.09842887 0.06881485 0.010617644 -0.08275469 0.18474618 -0.00068335695 0.0027325845
-0.08057806 -0.15283021 0.073281564 -0.039422262 -0.10807772 -0.043482848 -0.059737656 -0.111164525
-0.08058765 -0.08617722 0.057510734 0.03809916 0.08163438 -0.06338728 0.117352866 -0.018307097
0.21165204 0.09368574 -0.032021143 0.032177426 -0.08506705 0.039353635 -0.07631084 0.080331005
0.10564087 0.04167277 -0.10817624 0.0019945644 -0.093462646 -0.17787574 -0.03909889 -0.0025157214
-0.0675276 -0.0059990557 -0.050676245 0.10412154 -0.11414189 -0.11801824 -0.039047692 -0.22373956
-0.24457027 -0.0017967063 0.06799778 -0.027848102 -0.046130892 0.025702633 -0.009126473 -0.095423676
-0.010617599 0.07018013 -0.07236872 -0.11144192 -0.043684524 -0.11993976 -0.033294734 -0.0242017
-0.07376738 0.07102542 -0.11099959 -0.09327918 0.015884412 -0.008522006 -0.052660707 -0.1303635
-0.113223284 -0.0603642 0.01303306 -0.08294904 -0.12784404 -0.024889356 -0.015454856 -0.11237798
-0.19470938 -0.060114987 -0.021330856 0.047603086 0.044641268 -0.02868985 0.01967888 0.15821363
-0.006223236 -0.11172747 -0.02949396 0.07158204 -0.08047071 -0.049270205 0.058604475 -0.072162114
-0.00744431 0.13469233 0.045512464 0.01912675 0.04052525 -0.3200671 0.035495188 -0.3311054
-0.21333303 -0.05998877 -0.0019027326 0.1487829 -0.05048141 -0.10569172 0.017777093 -0.16663049
-0.0073304134 -0.022877498 0.06979913 -0.0578631 -0.105449885 0.00842246 0.09080695 -0.2239524
00000000: 3a1d 65be ccf5 84bd 4650 b93d 7df1 89bc
00000010: ff0b dabc b657 b23d a2cc 9abc d75f 8abd
00000020: adc4 95be 1395 c9bd cdee 8c3d a0f5 2d3c
00000030: 4a7b a9bd 1a2e 3d3e 4f23 33ba 2915 333b
00000040: 1c06 a5bd 867f 1cbe a514 963d 3d79 21bd
00000050: da57 ddbd 121b 32bd 79af 74bd 3aaa e3bd
00000060: 230b a5bd af7d b0bd 6090 6b3d dd0d 1c3d
00000070: ed2f a73d 31d1 81bd b356 f03d c4f8 95bc
00000080: 50bb 583e 4fde bf3d 9a28 03bd 7acc 033d
00000090: a237 aebd 4731 213d dc48 9cbd 9584 a43d
000000a0: 3e5a d83d 11b1 2a3d 818b ddbd 3db7 023b
000000b0: 5869 bfbd 0f25 36be 2826 20bd cdde 24bb
000000c0: e94b 8abd ba93 c4bb e591 4fbd ad3d d53d
000000d0: 39c3 e9bd 8cb3 f1bd 79f0 1fbd fc1b 65be
000000e0: a170 7abe 767f ebba 6c42 8b3d b421 e4bc
000000f0: bff3 3cbd 548e d23c 3487 15bc 7d6d c3bd
00000100: 70f5 2dbc 9aba 8f3d 0d36 94bd a93b e4bd
00000110: 8bee 32bd faa2 f5bd 0f60 08bd a542 c6bc
00000120: 5a13 97bd c775 913d c153 e3bd 2809 bfbd
00000130: 0720 823c e29f 0bbc c1b2 57bd 027e 05be
00000140: 9ce1 e7bd 7440 77bd 9e88 553c 30e1 a9bd
00000150: 8ce9 02be c3e4 cbbc 5d36 7dbc 6d26 e6bd
00000160: e561 47be 223b 76bd 0cbe aebc 74fb 423d
00000170: c3d9 363d fa06 ebbc 9a35 a13c c102 223e
00000180: 4aec cbbb 5fd1 e4bd 519d f1bc 9b99 923d
00000190: d4cd a4bd 8ecf 49bd 3f0b 703d bbc9 93bd
000001a0: 66ef f3bb c9ec 093e 476b 3a3d b4af 9c3c
000001b0: cefd 253d d6df a3be 6763 113d a686 a9be
000001c0: f973 5abe c9b6 75bd 1d65 f9ba 8b5a 183e
000001d0: 98c5 4ebd e774 d8bd 44a1 913c 2fa1 2abe
000001e0: f733 f0bb 9769 bbbc d9f2 8e3d dc01 6dbd
000001f0: 1cf6 d7bd 5cfe 093c fff8 b93d c753 65be

model.2.weight f4 [64, 128]
0.072087735 0.10694338 0.026592977 -0.024945516 0.04330646 0.027276121 0.08725428 0.038591713
-0.015331593 0.09770601 0.030952921 -0.01858071 0.021280458 0.08236169 0.18112656 0.12190456
0.10706958 0.21715559 0.046253048 0.06966033 0.15548052 0.07650888 0.12784007 0.07098925
0.037888654 -0.01285429 -0.11255375 -0.041343953 0.030679649 -0.045078997 0.047428194 -0.060719993
0.020389862 -0.03506408 0.060147725 0.09681998 0.104506716 -0.072794214 0.06545296 0.10262744
0.031646997 -0.047256462 -0.059482466 -0.038998522 -0.035191037 0.037349064 0.041292086 0.07997138
0.06412784 -0.06236702 -0.055587683 -0.07112402 0.048153553 0.030252311 -0.016913429 0.09538455
0.028429056 0.09341341 -0.04414237 -0.06782797 0.11540424 0.13239712 -0.03737815 0.060407586
-0.08917623 -0.0723668 0.039208017 -0.014461039 0.026728064 0.024776828 0.036439955 -0.014476518
0.003643013 -0.060535237 0.06955274 -0.06094828 0.035554502 0.09446448 0.03140145 0.044760592
0.025214558 -0.0115832975 0.044743605 0.032330956 0.08930679 0.16145195 -0.21514691 -0.116930075
-0.084763706 0.09726022 -0.029735658 -0.09603574 -0.08888578 0.04360081 0.10670014 0.053633627
0.0667529 -0.028604748 -0.108335294 -0.2679193 0.0142627675 0.012855466 0.036332995 0.06880914
0.011771083 -0.009500899 -0.010186428 0.06849996 -0.19570607 0.031899873 0.02800228 -0.02527637
0.0851185 0.11086938 -0.051922604 -0.036734477 0.04402376 0.20614956 -0.19801226 0.07894005
-0.08954067 0.06738996 -0.18938339 -0.024752436 -0.020160038 -0.21382993 0.05331639 0.41809264
-0.01798852 0.09513128 -0.060674317 -0.09554461 -0.13311312 -0.045680795 0.07398941 -0.09945623
0.018748948 -0.060440496 0.015918199 0.01319253 0.08210295 0.09971345 0.19330016 0.2954696
-0.08954125 0.19100535 -0.070461564 0.21470661 -0.01925332 0.04948179 0.22274965 0.045138545
0.03470314 -0.02884767 -0.14848666 -0.046614032 -0.042841155 -0.007793175 -0.05206391 0.023854036
0.023599144 -0.059747454 -0.046220813 0.041841365 0.10627776 0.29309407 0.08873479 0.11281032
0.096796885 0.10285099 0.11976861 -0.0059934235 -0.40015957 0.113631144 -0.0038125375 0.07478511
0.058381233 0.03812014 -0.09275043 -0.40440643 0.061866183 0.1394366 -0.10480665 -0.049868513
0.016142868 -0.004703658 0.14288858 -0.012225697 -0.045722254 -0.021474373 -0.13224785 0.086971544
0.08449964 -0.05520407 0.10960776 0.03840061 -0.14350395 -0.033323973 0.017565677 0.039069273
-0.226237 -0.09012751 -0.01878915 0.072301246 -0.037662707 0.042401884 0.084604524 -0.023789585
-0.02426961 -0.26100293 0.09723614 -0.12745197 0.04552223 0.052514773 0.05218728 0.1864687
-0.11002546 0.049883697 0.09243058 -0.25585535 -0.19090785 0.13262804 0.018963944 0.079977036
-0.025422355 0.06541865 -0.16281597 0.0069548106 0.07686453 0.10060447 0.04812901 0.074936144
-0.038857136 0.072555885 0.05365583 0.03459367 -0.17119162 0.02391403 0.05722168 0.040398598
-0.03871922 0.21568659 0.14124237 0.019939447 0.09081374 -0.3292788 -0.13104801 0.11558228
-0.153569 -0.26829165 -0.13171446 -0.12945491 0.023445036 -0.08292326 -0.05347392 0.21128522
00000000: bca2 933d 2105 db3d 84d9 d93c 8a5a ccbc
00000010: 1d62 313d 2c72 df3c 5fb2 b23d 5812 1e3d
00000020: 5d31 7bbc 171a c83d fb90 fd3c 9336 98bc
00000030: 5b54 ae3c 3fad a83d 3e79 393e 19a9 f93d
00000040: 4c47 db3d 095e 5e3e d673 3d3d 13aa 8e3d
00000050: 4936 1f3e b0b0 9c3d 82e8 023e d062 913d
00000060: 2231 1b3d cd9a 52bc 9582 e6bd 4758 29bd
00000070: e353 fb3c c1a4 38bd 1144 423d 87b5 78bd
00000080: a408 a73c 5a9f 0fbd 765d 763d 8e49 c63d
00000090: 9e07 d63d 2215 95bd 340c 863d 562e d23d
000000a0: 48a0 013d fe8f 41bd e3a3 73bd eabc 1fbd
000000b0: 7a24 10bd 55fb 183d e421 293d 09c8 a33d
000000c0: 7555 833d 8f74 7fbd e9af 63bd 78a9 91bd
000000d0: a93c 453d b2d3 f73c 088e 8abc fa58 c33d
000000e0: 0de4 e83c 884f bf3d a1ce 34bd 64e9 8abd
000000f0: 0f59 ec3d 1c93 073e d519 19bd f26d 773d
00000100: 07a2 b6bd 0b35 94bd 9698 203d feed 6cbc
00000110: d0f4 da3c c6f8 ca3c 1042 153d eb2e 6dbc
00000120: 9ebf 6e3b ccf3 77bd ab71 8e3d e7a4 79bd
00000130: 99a1 113d 9876 c13d cf9e 003d e256 373d
00000140: c38e ce3c dfc7 3dbc 1245 373d 776d 043d
00000150: 7ae6 b63d a953 253e 794f 5cbe 0979 efbd
00000160: 9898 adbd 5e30 c73d 3298 f3bc 63ae c4bd
00000170: bf09 b6bd c396 323d 9a85 da3d efae 5b3d
00000180: bfb5 883d 8154 eabc e5de ddbd b82c 89be
00000190: 62ae 693c bc9f 523c e8d1 143d ceeb 8c3d
000001a0: 80db 403c a9a9 1bbc fae4 26bc b549 8c3d
000001b0: 2c67 48be 71a9 023d 0a65 e53c 6410 cfbc
000001c0: 9c52 ae3d 7c0f e33d ccac 54bd e476 16bd
000001d0: 4252 343d df18 533e bac3 4abe 52ab a13d
000001e0: 1961 b7bd bf03 8a3d b8ed 41be 9fc5 cabc
000001f0: aa26 a5bc 3cf6 5abe 4962 5a3d 3d10 d63e
00000200: a95c 93bc 30d4 c23d a285 78bd e4ac c3bd
00000210: ce4e 08be c91b 3bbd c387 973d b5af cbbd
00000220: 6597 993c 7490 77bd e266 823c 7b25 583c
00000230: 9725 a83d 9136 cc3d 7af0 453e cb47 973e
00000240: 6761 b7bd e896 433e 274e 90bd 0ddc 5b3e
00000250: 23b9 9dbc 6bad 4a3d 7c18 643e 32e3 383d
00000260: e124 0e3d f351 ecbc e30c 18be 5bee 3ebd
00000270: 357a 2fbd e45d ffbb f740 55bd 8a69 c33c
00000280: fe52 c13c bfb9 74bd 0952 3dbd da61 2b3d
00000290: 27a8 d93d 6d10 963e 96ba b53d 1909 e73d
000002a0: 723d c63d 8aa3 d23d 3f49 f53d 7b64 c4bb
000002b0: b7e1 ccbe 72b7 e83d c4db 79bb f028 993d
000002c0: 2921 6f3d dd23 1c3d f0f3 bdbd 5c0e cfbe
000002d0: 6567 7d3d 78c8 0e3e dea4 d6bd ed42 4cbd
000002e0: 0c3e 843c 2521 9abb 6251 123e 4a4e 48bc
000002f0: 4247 3bbd 06eb afbc fb6b 07be 231e b23d
00000300: 260e ad3d aa1d 62bd 097a e03d f549 1d3d
00000310: b3f2 12be b87e 08bd e5e5 8f3c 1a07 203d
00000320: acaa 67be c694 b8bd b4eb 99bc ad12 943d
00000330: 3644 1abd 99ad 2d3d 2345 ad3d 60e2 c2bc
00000340: 10d1 c6bc 2da2 85be be23 c73d c582 02be
00000350: 8575 3a3d bb19 573d 54c2 553d a7f1 3e3e
00000360: 0755 e1bd d952 4c3d 3e4c bd3d 79ff 82be
00000370: 597d 43be a5cf 073e 465a 9b3c 00cb a33d
00000380: 8b42 d0bc 37fa 853d 3bb9 26be 2ee5 e33b
00000390: 276b 9d3d b709 ce3d ed22 453d 1f78 993d
000003a0: a928 1fbd 2e98 943d 37c6 5b3d 18b2 0d3d
000003b0: db4c 2fbe 5be7 c33c 4861 6a3d 0079 253d
000003c0: 0b98 1ebd f2dc 5c3e d7a1 103e 0d58 a33c
000003d0: 8efc b93d 3b97 a8be 7331 06be 67b6 ec3d
000003e0: 3141 1dbe 865d 89be 28e0 06be d48f 04be
000003f0: ce0f c03c acd3 a9bd 7807 5bbd 275b 583e

model.2.bias f4 [64]
0.009207898 0.09936621 0.11344071 0.04774394 0.08333628 0.00389124 0.049991105 -0.07499122
0.07483511 -0.026734807 0.045064144 -0.1627375 0.09526329 0.015253307 0.06306757 0.08846598
-0.029704819 0.03193426 -0.16036555 -0.035410218 -0.08618855 0.03508059 0.023227163 -0.05011151
0.0732383 -0.21818991 -0.052061424 -0.0160151 -0.09416781 0.14787179 -0.06345577 0.004323863
0.029641323 -0.106616445 -0.12609294 0.041026674 0.029341273 -0.11815869 -0.04033647 0.038953923
-0.08433202 -0.07214621 0.010538414 0.003964751 0.05031305 -0.09193611 -0.028424006 0.116186686
-0.00806859 -0.097408585 -0.08543578 -0.09205679 -0.09625758 0.07997123 -0.0061157234 -0.083768755
-0.04769327 -0.044693556 0.071650006 0.037161257 0.0645583 0.0215289 -0.0178802 -0.19718699
00000000: b9dc 163c 8380 cb3d 9a53 e83d 268f 433d
00000010: 36ac aa3d 2d04 7f3b 79c3 4c3d ff94 99bd
00000020: 2643 993d f402 dbbc 2e95 383d a9a4 26be
00000030: 6619 c33d 02e9 793c 9229 813d a72d b53d
00000040: 8557 f3bc 80cd 023d de36 24be 4e0a 11bd
00000050: 9f83 b0bd aab0 0f3d e446 be3c ba41 4dbd
00000060: f6fd 953d 2d6d 5fbe 5c3e 55bd 1932 83bc
00000070: 0edb c0bd b46b 173e 19f5 81bd 31af 8d3b
00000080: 5cd2 f23c b959 dabd 821e 01be 960b 283d
00000090: 1c5d f03c 2ffd f1bd db37 25bd 268e 1f3d
000000a0: 44b6 acbd 64c1 93bd 50a9 2c3c beea 813b
000000b0: 0f15 4e3d 0049 bcbd 76d9 e8bc 49f3 ed3d
000000c0: 1f32 04bc 277e c7bd f4f8 aebd 4588 bcbd
000000d0: b222 c5bd f5c7 a33d 6866 c8bb f48e abbd
000000e0: 055a 43bd 9710 37bd 3dbd 923d 6736 183d
000000f0: 2437 843d 605d b03c 7f79 92bc 63eb 49be

model.4.weight f4 [32, 64]
0.070753984 0.0993728 -0.0054100724 0.07127384 0.0732526 0.08037031 -0.013277863 0.07397369
-0.073092856 -0.5509793 0.13500035 -0.05199318 -0.12482717 -0.020695819 -0.012187636 0.1602029
-0.064080335 -0.08809261 -0.115598805 0.06978558 0.073287696 0.10713598 0.054333176 -0.060922302
-0.23829526 -0.059986472 -0.022567648 0.10810919 0.039725795 0.24878955 -0.1391612 0.08917133
-0.034467705 -0.015785152 0.0025854649 0.0018718735 -0.032986853 -0.08696822 0.08216297 0.114419706
-0.05290217 0.08738986 -0.15390843 0.0012776691 -0.4464441 -0.039904706 -0.1953398 0.10535643
0.061329175 -0.19688693 -0.0030083775 0.018547166 -0.08134976 -0.08228945 0.018099876 -0.027204484
0.13918728 -0.055708185 -0.10269832 0.012730448 0.026282985 0.06651243 -0.038903408 -0.029811883
-0.109969586 -0.09760558 0.019714054 -0.120896935 0.019351147 -0.06528527 -0.10047663 -0.0849997
-0.15144846 0.005778226 0.03385343 -0.040429693 0.2891345 0.09836987 0.0054124217 0.08691125
0.108058795 -0.00028380513 -0.028528344 0.010630434 0.060321413 0.0061258227 0.096377686 0.11221899
-0.005336762 0.06473104 -0.11505866 -0.06780081 -0.03526737 -0.12775618 0.33138305 0.022908175
-0.082014546 -0.09553383 -0.06574093 0.0029663304 0.14054157 -0.06973479 -0.107227266 0.067995034
0.07050098 -0.02121623 0.039560825 0.1044555 0.44116932 0.07980866 0.083788276 -0.10661567
0.10811004 0.21628165 0.008784139 0.11959383 0.11043108 0.08103093 0.039900046 -0.002301339
-0.023757815 0.042402793 -0.026973117 -0.0022139899 0.12479466 0.13616496 0.12351636 0.034925472
0.022928692 -0.08908697 -0.08156862 -0.117737606 -0.110021725 -0.027127258 -0.023634052 -0.088566884
0.041372124 -0.11806833 -0.08060638 -0.0023897737 -0.04815733 0.1303473 -0.10617581 -0.07193815
-0.037191145 -0.13245218 -0.0699488 0.00946791 0.080264844 0.05255085 0.051839232 -0.11168935
-0.019745717 0.100865185 -0.048336666 -0.08260625 0.11639124 0.032405406 0.108616404 0.06211207
0.004388412 0.08019093 0.09520226 0.03913696 0.111502476 -0.077346236 0.023261279 -0.0014016553
0.012090832 0.043027133 0.09348774 -0.10024286 0.08692046 0.07210514 -0.051043775 -0.010928567
-0.051903803 0.123506986 0.05674213 -0.08810931 0.10471071 0.05821064 -0.054400194 -0.027426764
0.014499172 -0.022482412 0.11753692 -0.043071385 -0.049154468 -0.11362358 -0.023793789 -0.030617574
0.03504036 0.12392711 -0.06102165 0.10319161 0.03855923 0.15728624 0.108538665 0.10396535
0.40251642 -0.24251686 0.0032818366 0.04645716 -0.36178648 -0.036186043 0.01738485 -0.08057831
0.018557198 0.033222042 0.1153628 -0.09321155 -0.045182772 -0.12507093 0.12103049 0.088228464
-0.15612258 0.09562346 -0.05561326 0.07306138 0.0658333 0.032675456 -0.21732037 0.14139403
-0.030582894 0.029800681 0.07405192 -0.15059449 -0.100598626 -0.03475641 -0.018586462 -0.082903795
-0.009693458 -0.06450264 -0.10915735 -0.1041054 -0.63429475 0.13525836 -0.36326015 0.04521017
0.009525416 -0.4112342 0.036692776 -0.24758677 -0.07387501 -0.022410749 0.050886642 -0.12511623
-0.075444214 0.11515354 -0.116242215 0.062828355 -0.092786744 -0.018451562 0.08170815 -0.016526742
00000000: 77e7 903d f783 cb3d fa46 b1bb 05f8 913d
00000010: 7605 963d 3099 a43d 658b 59bc 857f 973d
00000020: b5b1 95bd fb0c 0dbf 883d 0a3e cdf6 54bd
00000030: 63a5 ffbd 478a a9bc a7ae 47bc 3b0c 243e
00000040: 8d3c 83bd e669 b4bd 11bf ecbd beeb 8e3d
00000050: dc17 963d 1c6a db3d 778c 5e3d aa89 79bd
00000060: ac03 74be 60b4 75bd cadf b8bc 5a68 dd3d
00000070: 84b7 223d b0c2 7e3e 4680 0ebe 759f b63d
00000080: 022e 0dbd dd4f 81bc e770 293b a759 f53a
00000090: 391d 07bd 651c b2bd 0f45 a83d e154 ea3d
000000a0: f2af 58bd 74f9 b23d 2c9a 1dbe 7677 a73a
000000b0: 5294 e4be 1e73 23bd 2807 48be 1dc5 d73d
000000c0: 4d34 7b3d ba9c 49be 3328 45bb 3af0 973c
000000d0: b49a a6bd 5f87 a8bd 3146 943c f0db debc
000000e0: 1c87 0e3e 442e 64bd 7f53 d2bd 5e93 503c
000000f0: 6a4f d73c ab37 883d 2e59 1fbd 0d38 f4bc
00000100: bc37 e1bd 6fe5 c7bd 5e7f a13c d098 f7bd
00000110: 4c86 9e3c 49b4 85bd b1c6 cdbd 5314 aebd
00000120: 4e15 1bbe 4657 bd3b e5a9 0a3d 9b99 25bd
00000130: 7009 943e 2476 c93d af5a b13b 87fe b13d
00000140: ee4d dd3d aecb 94b9 46b4 e9bc 462b 2e3c
00000150: 9613 773d 20bb c83b aa61 c53d 12d3 e53d
00000160: 01e0 aebb b591 843d e0a3 ebbd 27db 8abd
00000170: 8574 10bd 84d2 02be 0aab a93e eda9 bb3c
00000180: 3ef7 a7bd 3ea7 c3bd 2ea3 86bd c466 423b
00000190: 21ea 0f3e 1dd1 8ebd f899 dbbd fb40 8b3d
000001a0: d162 903d a9cd adbc 880a 223d c4ec d53d
000001b0: f2e0 e13e b972 a33d 3099 ab3d 5159 dabd
000001c0: cc68 dd3d f078 5d3e 59eb 0f3c 9ced f43d
000001d0: b129 e23d 8bf3 a53d 3b6e 233d 10d2 16bb
000001e0: c09f c2bc 8dae 2d3d baf6 dcbc 9618 11bb
000001f0: 5894 ff3d d46e 0b3e 25f6 fc3d 030e 0f3d
00000200: f4d4 bb3c 3b73 b6bd 730d a7bd 6a20 f1bd
00000210: 1253 e1bd fc39 debc 339c c1bc 8e62 b5bd
00000220: d175 293d cfcd f1bd f514 a5bd c09d 1cbb
00000230: 9f40 45bd c379 053e b472 d9bd 4f54 93bd
00000240: be55 18bd 8ba1 07be 5141 8fbd 4b1f 1b3c
00000250: e561 a43d 8f3f 573d 6055 543d 63bd e4bd
00000260: c5c1 a1bc 6892 ce3d abfc 45bd 772d a9bd
00000270: 885e ee3d 88bb 043d 4772 de3d 3a69 7e3d
00000280: abcc 8f3b 243b a43d 67f9 c23d 144e 203d
00000290: 695b e43d b467 9ebd 708e be3c bfb7 b7ba
000002a0: a018 463c 383d 303d 8076 bf3d 214c cdbd
000002b0: 5b03 b23d dcab 933d 4713 51bd bb0d 33bc
000002c0: 1599 54bd 3bf1 fc3d 706a 683d a772 b4bd
000002d0: 9272 d63d 486e 6e3d bdd2 5ebd 18ae e0bc
000002e0: ef8d 6d3c 092d b8bc 32b7 f03d 9f6b 30bd
000002f0: 3256 49bd 7bb3 e8bd 31eb c2bc b5d1 fabc
00000300: 7b86 0f3d 7fcd fd3d d6f1 79bd 1f56 d33d
00000310: 48f0 1d3d a50f 213e 8549 de3d c9eb d43d
00000320: a216 ce3e 5756 78be 1514 573b dd49 3e3d
00000330: 143c b9be d137 14bd ac6a 8e3c 3e06 a5bd
00000340: 4405 983c d613 083d 5543 ec3d b2e5 bebd
00000350: 9211 39bd 9812 00be d5de f73d 20b1 b43d
00000360: 99de 1fbe 3cd6 c33d bbca 63bd 34a1 953d
00000370: 9cd3 863d b3d6 053d 3b89 5ebe 99c9 103e
00000380: fa88 fabc 8f20 f43c 88a8 973d 7135 1abe
00000390: a706 cebd bd5c 0ebd a342 98bc 77c9 a9bd
000003a0: 4fd1 1ebc f619 84bd e48d dfbd 3635 d5bd
000003b0: 2461 22bf 2b81 0a3e 3cfd b9be 4d2e 393d
000003c0: 7e10 1c3c 4a8d d2be 2a4b 163d 6387 7dbe
000003d0: c84b 97bd bf96 b7bc 836e 503d 781e 00be
000003e0: 7f82 9abd 9fd5 eb3d 6610 eebd 27ac 803d
000003f0: fa06 bebd bb27 97bc 9a56 a73d 1763 87bc

model.4.bias f4 [32]
0.16352697 0.09862798 -0.055269632 0.07586115 -0.17983446 0.006343469 -0.097609475 -0.07780537
0.009005198 -0.114358395 0.14669706 -0.0243613 -0.053527556 -0.13028258 0.090478994 0.02680061
0.041411847 -0.1154128 0.109049864 0.12769878 -0.037372746 -0.037178982 -0.098780595 -0.17418692
-0.20409621 -0.12528376 0.103202626 0.06582895 -0.016592192 0.11743204 -0.06250452 0.02229536
00000000: 9d73 273e 77fd c93d 6962 62bd 175d 9b3d
00000010: 8626 38be e0dc cf3b 7ae7 c7bd 6c58 9fbd
00000020: 8a8a 133c bc34 eabd c137 163e 5991 c7bc
00000030: b63f 5bbd cc68 05be 0d4d b93d f48c db3c
00000040: 789f 293d 8c5d ecbd 8955 df3d 78c3 023e
00000050: 2a14 19bd fd48 18bd 7b4d cabd 0e5e 32be
00000060: 99fe 50be 634a 00be e65b d33d 54d1 863d
00000070: 59ec 87bc 3680 f03d 5f02 80bd c2a4 b63c

model.6.weight f4 [16, 32]
-0.1290057 0.12091632 0.096755184 -0.0349621 -0.321894 -0.06309536 0.0076277233 -0.08176186
0.06921472 -0.01645947 0.10731791 0.13326359 0.01947048 0.016806735 -0.22004783 0.062411837
0.08827404 0.15054508 -0.09154707 -0.030287754 0.07656412 -0.14410925 0.011434433 0.07385619
-0.03372964 0.09667253 0.17012006 -0.2822408 0.07437122 -0.11202959 -0.10717373 0.00056029414
-0.1737412 0.10192938 0.0089006275 -0.15643132 0.3170793 0.012458782 -0.08837003 0.17086644
0.06013671 -0.02807945 -0.17331055 0.14379032 -0.12499392 0.13010402 -0.20533454 0.11047132
0.2048428 0.13897236 -0.089435354 -0.2454502 -0.091833025 0.16511597 0.25150767 -0.045963116
-0.028725673 -0.03113933 -0.042700388 0.14380355 0.15771507 -0.15586463 0.16291547 -0.14749727
-0.016717734 -0.09375918 -0.028017897 -0.011634918 0.37754083 0.056166492 0.108683184 -0.014967014
0.20193683 -0.03941116 0.059332207 -0.013328435 -0.10019776 0.011338159 0.105334476 0.15870593
0.57116485 0.15387243 -0.43835938 -0.029014276 0.103447534 0.05540784 0.35540482 -0.46192658
-0.034737226 -0.05120513 0.03317928 0.06053117 -0.14341208 -0.044896178 -0.05787536 -0.021213664
0.14580883 -0.07285357 0.0024488135 0.15947872 0.08186355 0.17961164 -0.18522784 0.16191609
0.14450262 -0.0773559 -0.22281174 0.13798776 -0.02104196 0.09575098 0.016207876 0.08443094
-0.097533464 0.116416104 -0.21541464 -0.19738512 -0.06858261 0.065952994 0.4000115 -0.043418624
-0.11595667 -0.13287972 -0.3296457 0.12661172 -0.057255402 -0.106797025 0.03327432 0.1638239
-0.14135818 0.068941444 -0.039827764 -0.0949971 -0.26193708 0.115540124 0.14118774 0.061605014
-0.07293218 0.051603794 0.17817093 -0.07853212 -0.10071139 -0.041917313 -0.0059450306 0.12527885
0.13065463 -0.106867835 0.07649294 -0.011659791 0.012717484 0.17988628 0.029971877 0.1814695
0.14384647 -0.100382924 -0.08824562 -0.064348705 0.14722505 0.18178016 -0.07506946 0.113046415
-0.0043967036 0.16468923 -0.062080093 -0.09450508 -0.07467116 0.10275607 0.14910483 -0.036390323
0.048297275 -0.15310167 0.010906149 -0.15916169 -0.1012959 -0.033688102 0.11200458 0.08134552
-0.027716666 0.08725341 0.14284712 0.11345815 -0.15681398 0.19041368 -0.018955955 0.16962919
0.1937174 0.050914627 -0.14217676 -0.05841902 -0.03098651 0.05754878 -0.01984996 -0.12431381
-0.09163017 -0.13263339 0.16300295 -0.05771933 0.119378544 -0.042464696 -0.08654381 -0.019670462
0.16001765 0.032421693 -0.0313459 -0.07082287 0.026226401 -0.005590111 -0.08151232 0.03758076
0.081080675 0.097347304 -0.116639525 0.15324186 -0.093302794 -0.071951844 0.10152684 0.17617415
-0.0023337603 -0.04170251 0.12099396 -0.17038116 -0.019632438 0.085974604 -0.065078065 0.073537335
0.09677954 -0.08662435 -0.1314747 -0.08642697 -0.002796337 -0.0075820223 -0.109418824 -0.17421839
0.0101579055 0.10171835 -0.095496625 0.0770581 0.0519512 -0.12039854 0.15385085 -0.10717608
0.084113345 -0.020049572 -0.0010915995 -0.17923403 -0.16349638 -0.039652005 -0.13681486 0.07424529
-0.17073311 0.17318387 -0.14341666 -0.05594251 0.10188632 -0.0551705 0.04106079 0.03605303
00000000: 121a 04be faa2 f73d 9527 c63d 6b34 0fbd
00000010: 4acf a4be 2438 81bd fbf1 f93b c372 a7bd
00000020: 72c0 8d3d 03d6 86bc 7ec9 db3d 4076 083e
00000030: 8e80 9f3c 47ae 893c 3854 61be 8ea3 7f3d
00000040: 05c9 b43d 7d28 1a3e 087d bbbd 061e f8bc
00000050: a6cd 9c3d 6091 13be 7d57 3b3c ea41 973d
00000060: 1728 0abd 3ffc c53d f433 2e3e de81 90be
00000070: f04f 983d c56f e5bd e77d dbbd b4e0 123a
00000080: 37e9 31be 5ac0 d03d f0d3 113c 882f 20be
00000090: 3858 a23e eb1f 4c3c 59fb b4bd 9df7 2e3e
000000a0: e951 763d e006 e6bc 5278 31be c53d 133e
000000b0: d0fc ffbd fd39 053e 3843 52be ca3e e23d
000000c0: 50c2 513e c54e 0e3e e229 b7bd 4c57 7bbe
000000d0: f412 bcbd 2914 293e 9dc5 803e d243 3cbd
000000e0: 1a52 ebbc e817 ffbc 9ae6 2ebd 3d41 133e
000000f0: 0f80 213e fa9a 1fbe 50d3 263e 8609 17be
00000100: a1f3 88bc d004 c0bd ca85 e5bc 62a0 3ebc
00000110: 084d c13e d60e 663d 4a95 de3d 3538 75bc
00000120: 87c8 4e3e 996d 21bd 5406 733d 825f 5abc
00000130: 7c34 cdbd b0c3 393c 9ab9 d73d cf83 223e
00000140: dc37 123f bc90 1d3e a470 e0be 59af edbc
00000150: 4ddc d33d 55f3 623d 9ff7 b53e a481 ecbe
00000160: 9f48 0ebd 78bc 51bd ffe6 073d 88ef 773d
00000170: 9eda 12be 0ee5 37bd b70e 6dbd 47c8 adbc
00000180: e94e 153e 4134 95bd 467c 203b 644e 233e
00000190: 14a8 a73d 1dec 373e 5eac 3dbe 55cd 253e
000001a0: 7ff8 133e c56c 9ebd c328 64be aa4c 0d3e
000001b0: 3060 acbc 1719 c43d 61c6 843c 21ea ac3d
000001c0: a0bf c7bd 916b ee3d a895 5cbe 531f 4abe
000001d0: 0a75 8cbd 5d12 873d 4fce cc3e bad7 31bd
000001e0: b17a edbd 9f11 08be 52c7 a8be 81a6 013e
000001f0: a484 6abd 66b8 dabd a74a 083d 74c1 273e
00000200: 33c0 10be 2c31 8d3d 7022 23bd d78d c2bd
00000210: 9e1c 86be 4da0 ec3d 8593 103e 8a55 7c3d
00000220: 775d 95bd 805e 533d 7172 363e 73d5 a0bd
00000230: c641 cebd 7db1 2bbd 88ce c2bb 1949 003e
00000240: 54ca 053e 86dd dabd 55a8 9c3d b508 3fbc
00000250: fe5c 503c 1c34 383e 9587 f53c 24d3 393e
00000260: 7d4c 133e 9095 cdbd 1fba b4bd 41c9 83bd
00000270: 2ac2 163e 9424 3a3e 04be 99bd e184 e73d
00000280: 3912 90bb 4ba4 283e b247 7ebd e18b c1bd
00000290: 31ed 98bd c671 d23d f0ae 183e 050e 15bd
000002a0: 5dd3 453d afc6 1cbe b4af 323c 48fb 22be
000002b0: 3a74 cfbd 89fc 09bd a862 e53d 7b98 a63d
000002c0: 100e e3bc eab1 b23d 8446 123e bf5c e83d
000002d0: d893 20be cefb 423e 8549 9bbc 46b3 2d3e
000002e0: db5d 463e db8b 503d c996 11be c848 6fbd
000002f0: 6cd7 fdbc 45b8 6b3d 629c a2bc 3d98 febd
00000300: 99a8 bbbd 0cd1 07be 3fea 263e 1b6b 6cbd
00000310: bd7c f43d 76ef 2dbd e23d b1bd f323 a1bc
00000320: abdb 233e 9ccc 043d 8f64 00bd 950b 91bd
00000330: c0d8 d63c 402d b7bb eeef a6bd 48ee 193d
00000340: a00d a63d 065e c73d b4e0 eebd 6feb 1c3e
00000350: 8915 bfbd 7d5b 93bd 4eed cf3d ff66 343e
00000360: 00f2 18bb 40d0 2abd aecb f73d 6678 2ebe
00000370: 35d4 a0bc 7413 b03d a647 85bd be9a 963d
00000380: 5a34 c63d 1b68 b1bd 4ea1 06be a000 b1bd
00000390: c042 37bb 9d72 f8bb fa16 e0bd 4e66 32be
000003a0: 586d 263c b651 d03d bc93 c3bd a3d0 9d3d
000003b0: c8ca 543d 8293 f6bd 148b 1d3e 227f dbbd
000003c0: 9e43 ac3d 003f a4bc 0014 8fba 2089 37be
000003d0: 986b 27be 246a 22bd 3219 0cbe ea0d 983d
000003e0: a9d4 2ebe 1d57 313e d1db 12be f923 65bd
000003f0: c6a9 d03d 76fa 61bd 5c2f 283d 58ac 133d

model.6.bias f4 [16]
0.12336059 -0.19550648 0.0246689 0.14386413 -0.08690266 0.036809687 -0.11897651 -0.10043776
-0.09477585 -0.12822348 0.07185222 0.012361111 -0.04891589 -0.1427049 0.08246154 -0.034801915
00000000: 7aa4 fc3d da32 48be 6f16 ca3c 1e51 133e
00000010: 06fa b1bd c1c5 163d f5a9 f3bd 50b2 cdbd
00000020: d719 c2bd 044d 03be 4227 933d 4286 4a3c
00000030: 075c 48bd 3c21 12be 99e1 a83d 748c 0ebd

model.8.weight f4 [1, 16]
0.12229869 -0.42892566 -0.07443204 -0.24766074 0.18821387 0.1725727 0.028535062 0.15758486
-0.09641221 -0.18329228 0.027557096 -0.13471857 -0.24990946 0.21324651 0.1211267 -0.07570403
00000000: bc77 fa3d 259c dbbe d36f 98bd c79a 7dbe
00000010: 23bb 403e e6b6 303e 5dc2 e93c ed5d 213e
00000020: c473 c5bd f9b0 3bbe 6bbf e13c aaf3 09be
00000030: 44e8 7fbe 4b5d 5a3e 4611 f83d b70a 9bbd
