Style-Imitation-in-Grayscale-Images-A-Generalization-and-Localization-Approach-Image-Style-Imitation/Style-Imitation-in-Grayscale-Images-A-Generalization-and-Localization-Approach-main/sharpen_model_weights.pth (torch, 7676 bytes, 9 tensors)

fc1.weight f4 [21, 9]
000000 d5 11 5f be b2 44 c9 bc 37 d7 88 bc 21 6d 55 3c
       -0.21784146 -0.02456889 -0.016704185 0.013026507
000010 28 39 86 3e 17 f4 ee 3b a7 4e 69 be 03 17 1b 3e
       0.26215482 0.0072922814 -0.2278391 0.15145497
000020 51 75 80 bc d8 1a 7e be f4 04 c4 bd ba 3a 64 bd
       -0.01568094 -0.24814928 -0.09571257 -0.05572007
000030 44 90 4b be 0a 80 c1 3e 01 f9 a9 3e 44 b9 43 3e
       -0.19879252 0.37793 0.33197787 0.19113642
000040 28 78 bb 3c 87 66 df bd cd 90 31 be 23 70 34 be
       0.022884443 -0.109082274 -0.17340393 -0.17620902
000050 1e 63 97 3e e9 49 84 be 7a 6d 0d bd 1b 3f 22 3e
       0.29567808 -0.2583764 -0.034528233 0.15844385
000060 0b 6c aa be ad de 15 3e 6f 3c 58 bd 78 26 2f bd
       -0.33285555 0.14635725 -0.05279201 -0.042761296
000070 21 e1 90 3e 0c f2 92 3e 22 96 77 3d e1 38 d6 3c
       0.2829676 0.28700292 0.060445912 0.026150169
000080 4a f1 1e 3e 48 e7 09 be ec d8 8a be e2 ed 1c 3e
       0.15521732 -0.13467133 -0.27118623 0.1532512
000090 0a 4f 11 be e7 14 cd 3d 80 71 69 3e 91 44 7c 3e
       -0.14190307 0.100137524 0.22797203 0.24635531
0000a0 ce cf 4b be e0 ee 1c be 05 c8 d1 bd 4d ee b0 be
       -0.1990349 -0.15325499 -0.10243229 -0.3455681
0000b0 bb 5d 27 be f0 d8 6f bd 95 b2 4c bd 89 d5 0f bc
       -0.16344349 -0.058556497 -0.049974997 -0.008778938
0000c0 54 9b 66 be 94 8c 94 be 7d db 13 be cb 19 0d 3e
       -0.2252019 -0.29013503 -0.14439197 0.1377937
0000d0 45 42 d6 3d 8c 79 71 3e 51 4b c8 3d f2 76 76 be
       0.10461859 0.23581523 0.097799905 -0.24068812
0000e0 01 07 21 be 8b cf 40 be 78 70 70 bc b3 ad d2 bc
       -0.15725328 -0.18829171 -0.014675252 -0.025717592
0000f0 3d 43 9a 3d 8f b7 68 3e 6b e5 3d bd f6 db 69 be
       0.07532356 0.22726272 -0.04636137 -0.22837815
000100 14 ec 7e 3d 1d a7 ec 3d 73 bd ea bd bb 5a 6f 3e
       0.06223686 0.11555312 -0.11461916 0.23374455
000110 5a 35 91 be 48 47 10 bd db bc 03 be 20 cc a4 be
       -0.28361017 -0.03522423 -0.12865011 -0.32186985
000120 c6 70 24 be 10 73 db bd 6c 1c 96 be 92 62 09 be
       -0.16058645 -0.10715306 -0.2931856 -0.13416508
000130 39 cd 6b 3e df 8a 93 be 4b 6f 65 3e ac a3 a6 be
       0.23027505 -0.28816888 0.22405736 -0.32546747
000140 5a 42 0c 3c b8 72 46 3d ea ce 5b 3e a5 a5 67 3e
       0.008560741 0.048449248 0.2146565 0.22621782
000150 7d a8 32 3e 91 de 85 be 40 1e 98 be e9 28 8d 3e
       0.17447086 -0.26146367 -0.2971058 0.27570274
000160 77 87 c8 3d a5 ac 84 be 30 c7 d3 bb 86 f5 be bc
       0.09791463 -0.25912967 -0.006462954 -0.023310434
000170 d0 c3 cf bd b0 b9 0b be 02 78 21 3e e8 b1 9f 3d
       -0.1014477 -0.13645053 0.15768436 0.07797605
000180 38 27 12 be 62 ba be 3d bb be a0 be a5 a6 69 3d
       -0.14272773 0.093128935 -0.31395516 0.05704369
000190 12 85 8a be e6 3c 75 be 6e f6 29 be 7d 66 5d be
       -0.2705465 -0.23949012 -0.16597912 -0.21621127
0001a0 4f c2 42 be 61 32 28 be 5f f1 35 3e 86 25 bf bd
       -0.19019435 -0.16425468 0.17767857 -0.09333329
0001b0 57 9a 1f 3e 89 1a 8a 3e 43 96 96 3e 9d 6e a7 be
       0.1558622 0.2697337 0.29411516 -0.3270158
0001c0 f6 de c2 3d fd 76 81 3e 8f 48 84 be ec 36 37 be
       0.09515183 0.25286093 -0.25836608 -0.17892045
0001d0 c9 fa c6 3d f6 58 4f be ce 88 1d be e2 4f 16 be
       0.09715802 -0.2024878 -0.15384218 -0.1467891
0001e0 24 5d 21 be dd 83 67 be a1 71 2d be 00 c8 fa 3d
       -0.15758187 -0.22608896 -0.16937877 0.12245178
0001f0 c7 86 6a 3d 22 52 49 3d 99 5d 99 3e 9d 34 28 3e
       0.05725744 0.049150594 0.29954222 0.1642632
000200 bc a4 fa bb 04 94 91 3c f0 4f 2d be e0 d7 8e be
       -0.0076490324 0.017770775 -0.16925025 -0.27899075
000210 73 53 15 be d1 77 c8 3d 5e e5 ae bd b1 1a 24 3e
       -0.14582615 0.09788478 -0.08539842 0.16025807
000220 c7 50 64 be 42 0e 10 3d c3 95 c5 bc c0 de 80 3e
       -0.22296439 0.035169847 -0.024119264 0.25169945
000230 cb 6a 30 3e 59 22 b2 bd 7f a9 09 3e 45 66 41 3e
       0.17228238 -0.086979575 0.13443564 0.18886669
000240 b4 fb 52 be 01 73 0c 3e 6e e0 2d be 42 99 5c be
       -0.2060383 0.13715746 -0.16980144 -0.21542838
000250 82 39 2a 3e 92 1c bd 3d 92 cc c8 3d 68 72 5b be
       0.166235 0.09233965 0.09804644 -0.21430361
000260 58 bc 7c be 4d f2 10 3e 40 40 5b bd 87 3b 62 3e
       -0.24681222 0.1415493 -0.05352807 0.2209302
000270 f7 5f 4a 3e 37 a4 8c 3e 2e 4a 42 3e c6 35 cb bd
       0.1976317 0.27469036 0.1897361 -0.09922366
000280 f3 9e ac bd 37 e4 9c be 19 a2 63 bd f7 08 74 be
       -0.08428755 -0.30642864 -0.05557451 -0.23831545
000290 a0 48 5a bd 9f 1e 8e bc 44 08 24 3e be e5 64 3c
       -0.053291917 -0.017348586 0.16018778 0.01397079
0002a0 e6 4b 1c 3d 81 89 90 be 22 e5 bb ba 92 bd 84 3e
       0.03815832 -0.28229907 -0.0014335255 0.2592588
0002b0 9a dc 07 3e 3f e5 9f 3e 43 9c 63 be b2 4e 86 bd
       0.13267747 0.31229588 -0.22227578 -0.06557979
0002c0 3f a9 c1 3d 0a f2 18 3e 13 01 2c be ab de df 3d
       0.09456109 0.1493608 -0.16797285 0.109311424
0002d0 a6 15 91 3e fe e8 fc 3c a7 9d 07 3d 0c 60 09 3e
       0.2833683 0.030872818 0.033109333 0.13415545
0002e0 69 cc 03 3e 2b 96 61 be f7 3f 0f be 98 0d 0c 3d
       0.12870945 -0.22029941 -0.13989244 0.03419265
0002f0 c3 48 06 3e
       0.13113694

fc1.bias f4 [21]
000000 e6 d2 48 be a1 77 db bd ba c1 42 be d9 f5 53 3e
       -0.19611701 -0.10716177 -0.19019213 0.20699252
000010 bd d3 0d 3e ad 87 29 bd be b9 31 be 35 7e 90 3e
       0.13850303 -0.041389156 -0.17356011 0.28221288
000020 36 e2 36 be 54 50 9e be fa 93 74 3e 27 c9 c5 3e
       -0.1785973 -0.3092066 0.23884574 0.3863003
000030 00 53 21 3e 12 e0 58 be ac 33 cc 3d 28 ee aa be
       0.15754318 -0.21179226 0.09970793 -0.33384824
000040 0e 76 6a 3e ce d6 8d 3e e5 dc 32 3e 47 44 21 3d
       0.22896597 0.27702945 0.17467077 0.039371755
000050 77 86 30 3d
       0.043096986

fc2.weight f4 [17, 21]
000000 d7 51 b2 3d 48 6c 1e 3d 0a dd 49 be f7 b2 93 bd
       0.08707016 0.038677484 -0.19713226 -0.07211869
000010 79 45 b8 bd 63 fb 03 be 14 da 3b be 05 aa 76 bd
       -0.08997626 -0.12888865 -0.18344909 -0.060220737
000020 79 75 83 3d c6 21 1f 3d 7c 1f 1e 3e f2 72 58 be
       0.064188905 0.03885057 0.15441698 -0.21137598
000030 74 ce 40 3d 58 15 92 3d 32 d7 51 be dc 75 42 3e
       0.04707189 0.07132977 -0.20492247 0.18990272
000040 4f 84 ee bb 5f b2 44 bc 8d 03 e1 bd 3d 5d 64 3d
       -0.007278956 -0.012005418 -0.109870054 0.05575298
000050 2f e3 3e be 79 e2 d0 3d e9 05 b2 3d ae 15 1f 3d
       -0.18641351 0.10199446 0.086925335 0.038839035
000060 e3 a5 8b 3d 88 c0 29 3d ae 20 26 bd 1c 7f d7 3d
       0.0681875 0.041443378 -0.04055851 0.10522291
000070 93 68 3a 3e 25 de 10 3e 01 6d c7 bd d3 a9 c8 bd
       0.18203954 0.14147241 -0.09737588 -0.097980164
000080 ff 13 a4 bd d9 4a 19 3e 31 b0 06 3d 71 14 dc bd
       -0.080116265 0.14969958 0.032882873 -0.107460864
000090 f0 27 ae 3c 12 6e 01 3e 45 74 0d be 3c 02 b9 3d
       0.021259278 0.12639645 -0.13813885 0.09033629
0000a0 b0 6a b6 bd 0c a6 d5 bd c8 ab a7 3d bc 8e 60 be
       -0.08907068 -0.104320616 0.081870615 -0.21929449
0000b0 40 e4 45 3d a3 04 2f 3d 93 cb 84 bd b5 1e 08 be
       0.04831338 0.04272903 -0.06484141 -0.13292964
0000c0 79 2d f6 bd 43 af 08 3e d0 e6 ea bd 3a 82 4e be
       -0.12020392 0.13348107 -0.11469805 -0.20166865
0000d0 f7 c1 de bd f3 ad 68 3c 3f 33 4a be 2e 59 30 3e
       -0.108768396 0.014201629 -0.19746111 0.1722152
0000e0 c1 18 a1 3c b2 d1 3f be a3 ae 21 be 41 f8 b3 3d
       0.019665124 -0.18732336 -0.15789275 0.08787585
0000f0 6b 98 ce 3b 6c 39 71 3c 6c e2 2d 3d d3 a9 ae bd
       0.0063047907 0.014723163 0.04245226 -0.08528485
000100 67 3d fd 3b ad 75 b3 bc b1 b0 f8 3d 2b 60 d8 bd
       0.007728267 -0.021906698 0.12143076 -0.105652176
000110 b2 c1 0c 3e ee 23 2e 3d 96 66 96 bd 35 cf 07 3e
       0.13745764 0.042514734 -0.073437855 0.13262637
000120 cd 6b a3 bd 0d fc cc bd 33 b8 da bc ab 9d 0a 3e
       -0.07979546 -0.10009012 -0.026699161 0.13536708
000130 61 d7 22 3e d8 8b b8 3c 03 1d 9c 3d 3c 95 25 3c
       0.15902473 0.02252762 0.07622721 0.010106381
000140 6f 9d 68 3e 7d 07 2c bd f4 11 3d be 7e 65 ed bd
       0.22716306 -0.04199933 -0.1846388 -0.11591624
000150 9f 85 d6 bc 6c d7 75 be 11 2d a1 3d 30 eb 75 bd
       -0.026186762 -0.24007958 0.07869924 -0.060038745
000160 cd 6c 23 3e 9f 73 1b 3e 3f c2 25 be 56 1a cd 3d
       0.15959473 0.15180825 -0.1618738 0.10014789
000170 3f b7 5c 3e f6 2e 45 bd 29 fc f9 3c 84 dd 67 3e
       0.21554278 -0.04814049 0.030515747 0.22643095
000180 2f 56 89 3d 70 47 c1 bd 44 11 6b 3e f3 66 8d 3d
       0.06705891 -0.09437454 0.22955805 0.06904402
000190 e4 31 23 be 79 a8 8b 3d eb 9d 90 3d 9d 05 0b be
       -0.15937 0.06819243 0.070613705 -0.1357636
0001a0 85 51 b5 3d 61 c7 48 3e 21 ff 0a be 60 45 68 3e
       0.08853439 0.19607307 -0.13573886 0.22682714
0001b0 d2 e1 99 3d 8d b9 2d 3e 77 9e 82 bd 19 7b 4a 3e
       0.07513775 0.16965313 -0.06377881 0.1977352
0001c0 30 91 ce 3d 5f 59 48 be 46 eb 32 be ab 6c 3e 3e
       0.10086286 -0.19565342 -0.17472562 0.18596141
0001d0 82 20 1e 3e 78 43 04 3e 9e 47 44 3e be 29 0e be
       0.15442088 0.12916362 0.19167945 -0.13883111
0001e0 0a b5 8c bd d6 c0 1c be 95 fd 35 3d 59 ec 40 3e
       -0.06870468 -0.15307936 0.044431288 0.1884016
0001f0 44 cf 54 be b2 7e 9b 3c 6b 8e 2e 3e ea b6 da 3d
       -0.2078219 0.018981311 0.17046516 0.10679419
000200 44 fc bf 3d ca 92 78 bd a3 17 94 3c b4 98 4f be
       0.09374288 -0.060686864 0.018077677 -0.20273095
000210 02 f6 47 3d 54 af 41 be 0a 9d 65 be 08 5f 49 be
       0.048818596 -0.18914539 -0.22423187 -0.19665158
000220 30 33 50 be 6b c1 b6 3d 0f c7 11 be d6 33 f2 3d
       -0.20332026 0.0892361 -0.14236091 0.11826293
000230 6b d0 28 3e ed f2 5c 3e 41 2e 31 3e ea 7e e7 bd
       0.16485755 0.21577044 0.173028 -0.11303504
000240 da 82 39 3e 50 08 73 bd 06 d7 b7 bc 30 9b b4 3b
       0.18116322 -0.0593341 -0.022441398 0.005511664
000250 71 14 26 3d 14 fc 56 3e 58 00 6b 3c ec 4c 43 3e
       0.04054684 0.20994598 0.014343344 0.19072312
000260 e8 de 08 be d1 40 3b 3e 92 b8 28 be 7b c9 ac bd
       -0.13366282 0.18286444 -0.16476658 -0.08436867
000270 bd 9d 1a be 0b 56 3e bd ec ba 99 bc 45 0b 04 3e
       -0.15099235 -0.046468776 -0.01876589 0.12894924
000280 92 0f 87 bd 29 9e c0 3a 2a a4 63 3c e4 f9 06 3e
       -0.06594767 0.0014695573 0.01389412 0.13181263
000290 d9 0a a5 3d 26 eb 2a be 40 4b 40 be 5c ad 31 be
       0.0805871 -0.16691265 -0.18778706 -0.17351288
0002a0 32 a8 e5 3c 91 39 99 bb 28 77 c5 bc 69 5a 45 be
       0.028034303 -0.004676052 -0.02410467 -0.1927277
0002b0 91 7d 02 be b6 54 66 3e 57 b8 92 bd b4 51 40 ba
       -0.12743212 0.22493252 -0.07164066 -0.00073363935
0002c0 43 a1 f2 3d 98 b0 5b be 85 c2 05 3e 31 06 92 3d
       0.118471645 -0.21454084 0.13062485 0.07130087
0002d0 cc d1 36 be cf 91 eb bc a1 25 4c be dd 11 d4 3d
       -0.17853469 -0.02875605 -0.1993623 0.1035497
0002e0 2b 1e 24 be 03 c4 3d be 1f a6 e0 3d 95 0a 0c be
       -0.16027133 -0.18531804 0.10969185 -0.13675912
0002f0 38 f1 94 3c df 0c 23 3e 25 b8 56 be c9 96 25 be
       0.018181428 0.15922879 -0.20968683 -0.16170801
000300 61 1e 45 be 3a 6f ad 3c 3f 7d 13 be f1 b8 17 3e
       -0.1924987 0.021171201 -0.14403246 0.14816643
000310 d1 a5 f8 3d 75 7e c7 3d b5 17 03 bd 56 9b 05 3e
       0.12141002 0.09740917 -0.03200503 0.13047537
000320 f3 55 50 be 94 fe c2 bd c4 1c fb 3d 92 f0 54 3e
       -0.20345287 -0.09521213 0.12261346 0.20794895
000330 51 73 42 3e 47 d5 50 bd 7a db 04 3d 77 de fd 3d
       0.18989302 -0.050984647 0.03243587 0.123959474
000340 4b e9 44 be 3f 45 95 bc 76 97 b0 3d cd 6e e5 bd
       -0.19229619 -0.018221496 0.08622639 -0.11202774
000350 06 ee 70 bd 0e 06 92 ba 72 33 45 3e 28 cc 36 be
       -0.058820747 -0.001114072 0.19257906 -0.17851317
000360 9f 45 eb bb dc 3f bf 3d 65 49 3d 3e f3 57 0b 3e
       -0.0071799303 0.09338352 0.18485029 0.13607769
000370 fc ea 05 3e ce bf a7 bd 05 19 cd 3d 1d 2a 37 be
       0.1307792 -0.08190881 0.10014538 -0.17887159
000380 db 24 46 be b7 f2 2f be 84 bf dd 3d d8 cf 37 3e
       -0.19349997 -0.17182432 0.10827544 0.1795038
000390 61 1e 25 3d ec f9 05 3e f8 b8 2a 3e a5 28 17 be
       0.040312175 0.13083619 0.16672122 -0.14761598
0003a0 89 c7 28 be af 21 cc 3d 63 ce 0a be a2 c8 24 be
       -0.16482367 0.09967362 -0.13555293 -0.1609216
0003b0 70 8e a0 bd ac 0b 44 3e 72 a8 9e 3d 55 15 62 be
       -0.07839668 0.19145077 0.07746972 -0.2207845
0003c0 b6 09 b5 3d c0 86 b1 bc 58 aa 26 be 97 ba 00 be
       0.08839743 -0.0216707 -0.16275918 -0.12571178
0003d0 c0 6c 5e be 22 fc d8 3d 90 b1 71 bd 63 83 7b 39
       -0.21721172 0.105949655 -0.059007227 0.0002398617
0003e0 b2 0d ce 3c 33 e4 cf bd c4 00 e4 3d 1f 80 94 bd
       0.025153015 -0.101509474 0.111329585 -0.07251
0003f0 0e 8c 11 3e 2f ae b7 bd c2 93 bb bd ca ff 28 be
       0.14213583 -0.0896877 -0.09159042 -0.16503826

fc2.bias f4 [17]
000000 fe f1 18 3e 5d 2f eb 3d 88 7f 56 be e8 f5 e2 3d
       0.14936063 0.11483643 -0.20947087 0.11082059
000010 39 67 81 bd d4 ae dc 3d ca 2b d2 bd f5 f9 5a 3e
       -0.06318516 0.10775533 -0.10262258 0.21384414
000020 be d6 2a 3d 8f 19 60 bd df ef b4 bd 78 ce 45 be
       0.0417087 -0.054711875 -0.08834814 -0.19317043
000030 aa 32 46 3e 69 fa 0d be 18 d3 7d 3d 5d 4c e5 3d
       0.19355264 -0.13865055 0.061968893 0.11196206
000040 af c1 6f bd
       -0.05853432

fc3.weight f4 [13, 17]
000000 58 47 c8 3c 7d 9c 52 be 5c 77 8d 3c 13 88 30 bd
       0.024448082 -0.20567508 0.017268829 -0.04309852
000010 57 e4 0e be 81 a2 1e bd a0 9f f9 3d 64 0d 5a be
       -0.13954292 -0.038729195 0.12188649 -0.2129417
000020 f5 f3 58 be 70 d2 ed bd 47 52 0a be 1f b7 45 bd
       -0.21186812 -0.116124034 -0.13507949 -0.04827034
000030 cd 2a 88 3e 94 70 69 bb 68 1d 81 3e 6d 95 19 be
       0.26595154 -0.003562008 0.25217748 -0.14998408
000040 da dd 1f 3e aa 34 24 bc f8 17 db bd dc 5d 9e 3d
       0.15611973 -0.010022322 -0.10697931 0.07732746
000050 ab 6f 34 bb 78 19 8f 3d a6 31 86 3e 9d ab fe 3b
       -0.002753238 0.0698728 0.26209754 0.0077719227
000060 85 f5 f8 bb ab 01 72 3e af 5e e9 bd 3d b3 47 3e
       -0.0075976276 0.23633449 -0.113950126 0.19501968
000070 a9 84 28 be 2b 82 fe 3d b6 65 4d be 86 d7 d2 bc
       -0.16456856 0.12427171 -0.20058331 -0.025737535
000080 20 e1 37 3d 58 de d7 3d 8e 13 a9 bd 20 39 29 3e
       0.04489243 0.105404556 -0.08255683 0.16525698
000090 a5 31 c0 3d d5 dd 2c 3d 72 ab 9b 3d 26 6e 21 be
       0.09384469 0.042203743 0.0760106 -0.15764675
0000a0 4c e6 c1 bc f1 60 8b bd 2b 9a 9d bd 9d ac f5 3d
       -0.023669384 -0.068055995 -0.07695421 0.11995814
0000b0 49 17 34 3d 0b 67 55 be 6c 07 65 be db ee 93 bd
       0.04396752 -0.20840089 -0.22366112 -0.072232924
0000c0 83 52 24 3d 9a fb fc bd f8 d8 0d 3d 3d 23 5f be
       0.04011775 -0.12352677 0.034630746 -0.21790786
0000d0 6b 1b 10 be b5 78 1e be d2 65 10 be ed b7 b1 3d
       -0.14072959 -0.15475734 -0.14101341 0.08677659
0000e0 89 ba 20 3e a0 54 11 be cf b8 84 bd 0d c8 2c 3d
       0.15696158 -0.14192438 -0.06480562 0.04218297
0000f0 23 6b de 3c 9f 62 23 be 32 c7 d6 3d 00 32 40 3d
       0.027150696 -0.1595559 0.10487212 0.046922684
000100 73 29 51 bd 3b e2 b6 bd ac 71 c4 3d 8b 86 39 be
       -0.05106492 -0.08929869 0.09591994 -0.1811773
000110 69 69 06 be bf 33 fb bd d0 17 a6 bd 73 33 8b 3d
       -0.13126148 -0.12265729 -0.081100106 0.067969225
000120 29 8b d1 bc 09 f2 32 3e e7 79 18 be a4 d5 5a bb
       -0.025579052 0.17475142 -0.14890252 -0.00333915
000130 73 cc 2c be 19 d7 8b bd 5b ee 44 3d e9 c4 87 3c
       -0.16874866 -0.06828136 0.048078876 0.016573386
000140 13 b1 41 be 0d 44 01 bd 0a e4 35 3d be 4e 18 be
       -0.18915205 -0.03155904 0.044406928 -0.14873788
000150 46 91 38 3e 1f 5f fb 3d 25 4f 5a 3e d7 38 73 be
       0.18024167 0.12274002 0.21319254 -0.23752151
000160 94 f2 25 3e da 98 4d 3d db ff 08 39 1b 41 04 3d
       0.16205817 0.0501946 0.00013065284 0.032288652
000170 f7 96 b6 bc c3 55 6f bd 47 a0 13 be 08 1b cc 3d
       -0.022288783 -0.058431398 -0.1441661 0.09966093
000180 a6 3a e1 3d d3 b1 02 be 61 29 9b 3d e4 fd 28 3c
       0.109975144 -0.12763147 0.07576252 0.0103144385
000190 47 5e 83 3e ba 22 1c 3e 0f eb b6 bd 12 54 a2 bc
       0.25657865 0.15247622 -0.089315526 -0.019815478
0001a0 3f ae db bd 97 df fe bd be 1b 0b 3d 9b 28 31 3e
       -0.10726594 -0.1244499 0.033962004 0.17300646
0001b0 aa 6d 75 3e e4 c0 f9 3d fa 40 1a be 17 b2 6d bd
       0.23967615 0.12194994 -0.15063849 -0.058031168
0001c0 88 d9 10 be 44 63 76 be 51 38 03 bd dc 27 cb 3d
       -0.14145482 -0.24061304 -0.03203613 0.09919712
0001d0 87 ee fa 3d 81 66 35 3e 8e 95 5b be 61 d8 0a 3d
       0.12252527 0.17714883 -0.2144377 0.03389776
0001e0 96 38 7e 3e 57 37 7d 3e 27 a4 f0 bd 10 09 2a bd
       0.24826273 0.24728142 -0.117500596 -0.04151255
0001f0 c7 b0 fe 3d e2 fa 5d be d1 80 32 3e dd 39 b5 3d
       0.12436061 -0.21677735 0.17431952 0.08848927
000200 d8 44 2b 3e 31 16 f5 bb f4 8c 17 be cf 9b 66 be
       0.1672548 -0.007479452 -0.14799863 -0.22520374
000210 0f 57 73 be dc 7d 34 be f9 fd 00 3d 21 bf 40 3d
       -0.23763679 -0.17626137 0.031492207 0.047057275
000220 5f 10 20 3e 87 0c 4f 3e d8 e6 97 bd 24 a5 72 3c
       0.15631245 0.20219623 -0.07417077 0.01480988
000230 d0 32 db 3d 32 ea 83 bd b2 01 19 3e f1 a4 11 3e
       0.10703051 -0.064411536 0.14942053 0.14223076
000240 a5 55 0b be 9a de d9 bd 4c 61 37 be 10 cb ee bd
       -0.1360689 -0.10638161 -0.1790821 -0.11659825
000250 32 9b 06 3e 02 f0 5b be d5 f1 27 3e b2 b9 2b be
       0.1314514 -0.21478274 0.16400845 -0.16770056
000260 f0 52 2b bd 77 bd 84 bd e3 e8 32 be 76 fc 2a be
       -0.041827142 -0.0648145 -0.17471652 -0.16697869
000270 19 e9 e2 bd 36 d8 55 3e ed b2 14 be 2a 8d f0 3d
       -0.11079616 0.20883259 -0.1452138 0.11745675
000280 e0 d0 c0 bd b0 61 99 bd f4 1e 2b be a3 9a 73 be
       -0.0941484 -0.074893355 -0.16711026 -0.23789458
000290 33 af 19 be ac 5b 9e bd b9 14 cc bd 02 43 61 be
       -0.1500824 -0.07732329 -0.0996489 -0.21998218
0002a0 2e e7 8a 3e 49 ea c0 3c dd 4e 6f 3e 68 a6 01 3e
       0.271295 0.023549216 0.23369928 0.12661135
0002b0 7e 8a b6 bd 09 82 31 3e 34 91 db bd 0e f1 37 bd
       -0.08913134 0.1733476 -0.10721055 -0.044907622
0002c0 c9 6b 79 bd b3 60 5b 3e 2d f0 d4 bd f8 96 e5 3b
       -0.060893808 0.21423607 -0.103973724 0.0070065223
0002d0 60 01 9c bd ab f3 29 be 40 6f 60 bd 0a f2 c8 bd
       -0.0761745 -0.16596858 -0.054793596 -0.0981179
0002e0 af 13 1b 3e a2 37 85 be 64 35 50 3e b2 1e 05 3e
       0.15144227 -0.26019007 0.20332867 0.1299999
0002f0 e3 22 88 bd 37 37 45 be c3 48 79 be 8e 61 8b be
       -0.06647279 -0.19259344 -0.24344163 -0.27222866
000300 7f f1 54 be 07 44 68 3e 4e d2 ce 3c f6 a0 aa 3c
       -0.20795248 0.226822 0.025246765 0.020828705
000310 b3 3d dc bd 84 70 5b bd 4f 51 ec 3d 20 c8 51 be
       -0.10753956 -0.0535741 0.11538946 -0.20486498
000320 58 63 12 be 57 83 87 3e 1d 80 c7 bd 6f 04 36 bd
       -0.14295709 0.26467392 -0.097412325 -0.044437822
000330 21 53 0f 3d df 57 42 be 6c 3a 83 bc 72 cd 10 3e
       0.034991387 -0.18978833 -0.016019069 0.14140871
000340 f9 00 23 be ed 45 70 be 81 d5 11 3e 30 82 cf bd
       -0.1591834 -0.23464175 0.14241602 -0.10132253
000350 a5 21 5e 3d 0e a6 89 3d c0 62 2c 3e 44 85 8c bb
       0.054231305 0.067211255 0.16834545 -0.0042883474
000360 b2 65 40 3e 32 17 14 be ba 96 07 3e e3 8f 60 be
       0.18788794 -0.14461973 0.13241091 -0.21929888
000370 bc f7 8f 3d
       0.070296735

fc3.bias f4 [13]
000000 1f fd 1e be 05 13 0d 3e 17 9b 2e be 9e 7f 3b be
       -0.15526246 0.13776787 -0.1705135 -0.18310401
000010 9f 1a b2 3d 3c f9 98 bd 64 34 cd bd 66 78 d9 3d
       0.08696484 -0.07469413 -0.10019758 0.10618667
000020 a4 45 4b be 70 32 5f bd 62 d3 a4 3c 70 d4 a7 3d
       -0.19850785 -0.05449146 0.020120326 0.08194816
000030 7e de 4d 3e
       0.20104405

fc4.weight f4 [9, 13]
000000 46 79 a1 be bc db 82 3e f4 8a 71 3e 30 44 35 be
       -0.31537837 0.2555827 0.23588163 -0.17701793
000010 1b e5 f5 bd cd bf 1d be bb 5b 1a bd e6 91 04 3e
       -0.12006589 -0.15405197 -0.037685137 0.12946281
000020 ba 97 6b 3e a5 c8 93 3e db f2 16 be 48 0c a1 bb
       0.23007098 0.28864017 -0.1474108 -0.004914794
000030 4f cb 94 be 0a 30 90 3e 25 23 86 3e fb 28 6d bc
       -0.29061362 0.2816165 0.26198688 -0.014475103
000040 a4 64 07 be a6 a8 42 be 00 92 02 be b6 58 25 3d
       -0.13221985 -0.19009647 -0.12751007 0.040367804
000050 9d 8e 2f 3e ab b6 11 bd 3c 4b 2e be b6 40 9a 3e
       0.17144246 -0.035574596 -0.17020887 0.30127496
000060 70 f8 08 3e 78 54 9b 3e 2b 7b ba bd 58 30 07 be
       0.13376021 0.30337882 -0.09105524 -0.13202035
000070 cc 5d 79 be 0f f7 61 3e ff fb 8e be b2 c2 51 be
       -0.24352187 0.22066902 -0.27926633 -0.20484427
000080 95 e4 9a 3e 4d 8b 29 3e 30 30 11 bd 67 6c a5 3d
       0.3025252 0.16557045 -0.035446346 0.08077317
000090 0f a9 b8 3b 9e c3 d3 bc 39 99 1a be 82 6a 13 bd
       0.0056353877 -0.025850113 -0.15097512 -0.035990246
0000a0 d0 0a c0 3c 27 f1 8a be 91 b0 68 3d 95 57 17 3e
       0.023442656 -0.2713711 0.05680901 0.14779504
0000b0 a9 2d 4f 3e 9e 3f 33 be 13 0d 52 bb 4f 1d cd bd
       0.20232262 -0.17504737 -0.003205125 -0.10015356
0000c0 62 52 5b bb e0 e9 f3 bc ed e4 d7 bd 70 42 79 be
       -0.0033465852 -0.029774606 -0.10541711 -0.2434175
0000d0 c9 e7 6f 3d c6 6e 50 3e 1d 25 15 3e 85 d5 c2 3d
       0.058570657 0.20354757 0.14564939 0.09513382
0000e0 5b 4d 6a be 00 c6 57 3e 98 36 4c 3e d0 35 82 3e
       -0.22881071 0.21071625 0.19942701 0.2543168
0000f0 e5 4e 27 be bc cc a4 3e 66 80 79 be e2 ff 09 be
       -0.1633869 0.3218745 -0.24365386 -0.13476518
000100 66 db 9f 3d 0e 58 4d be 88 dc 02 3e c7 73 57 3e
       0.07805519 -0.20053121 0.12779438 0.2104026
000110 b4 a8 83 3e e8 76 98 bb 5a 28 c9 3d 7a 83 19 3b
       0.25714648 -0.0046528466 0.098221496 0.0023424313
000120 d2 05 88 3e ea 5b b2 3d 87 02 17 be ec f9 64 be
       0.2656694 0.087089375 -0.14747058 -0.22360963
000130 e7 a6 8d be d1 d5 63 be 9c 48 92 3e cd 03 8a be
       -0.276664 -0.22249533 0.28571022 -0.26956025
000140 0e 1b 21 bd 7d 5d 13 be f0 74 16 be aa d1 6d bd
       -0.039332442 -0.14391132 -0.14693046 -0.05806128
000150 56 c6 1c 3c 5a 1e a9 3d 48 72 6d 3e bf 8e 23 3d
       0.009568771 0.08257742 0.23188126 0.039931055
000160 34 5f 64 3c eb ef 71 3e 8d de ae bd 58 bf 8c 3d
       0.013938714 0.23626678 -0.08538542 0.068724334
000170 dc 3a 1a bc 3c 13 53 be 28 a1 93 3e 6c 0d 0c be
       -0.009413447 -0.20612806 0.2883389 -0.13676995
000180 fe 71 83 3e c5 c6 88 bd b7 b0 55 3d 74 54 e3 bd
       0.25672907 -0.06678537 0.05217048 -0.111000925
000190 51 36 48 3c 64 24 09 be 2f ba 65 be d6 6e a4 bd
       0.012219981 -0.13392788 -0.22434305 -0.08028953
0001a0 44 59 4e 3e 1a 89 3e be 09 f1 82 3e 35 8f 1f be
       0.2015124 -0.18606988 0.2557452 -0.15581973
0001b0 cf e6 85 bc 44 3d fa bd 24 2d 86 be 9c 15 9e be
       -0.01634541 -0.12218717 -0.26206315 -0.30875862
0001c0 8e b0 18 3e b7 97 b5 3d 74 f2 27 be 67 01 7b 3e
       0.149111 0.08866828 -0.16401082 0.24512254
0001d0 76 54 bb 3d
       0.09146969

fc4.bias f4 [9]
000000 37 cc 12 3e d8 f5 49 3e 0d 8b 15 3e 04 b2 cd 3b
       0.14335714 0.19722688 0.14603825 0.0062773246
000010 4d cc 4e bd 8e 45 a9 bc e6 a9 8c 3d 5b 7b 18 be
       -0.050487805 -0.02066305 0.06868343 -0.14890806
000020 1c 47 45 3e
       0.19265407

fc5.weight f4 [1, 9]
000000 6d 6c b6 be 36 62 04 3f 71 1c bd be e3 d1 c5 bb
       -0.35629597 0.5171236 -0.36935762 -0.0060369833
000010 c0 77 e0 be 86 db e1 be 01 84 7a 3e 0c 37 3b be
       -0.43841362 -0.44112796 0.24464418 -0.18282717
000020 e4 3f b5 3e
       0.35400307
